{"format": "graph-model", "generatedBy": "2.3.0", "convertedBy": "TensorFlow.js Converter v2.3.0", "userDefinedMetadata": {"signature": {"inputs": {"input_1:0": {"name": "input_1:0", "dtype": "DT_FLOAT", "tensorShape": {"dim": [{"size": "-1"}, {"size": "416"}, {"size": "416"}, {"size": "3"}]}}}, "outputs": {"Identity:0": {"name": "Identity:0", "dtype": "DT_FLOAT", "tensorShape": {"dim": [{"size": "-1"}, {"size": "-1"}, {"size": "-1"}]}}}}}, "modelTopology": {"node": [{"name": "StatefulPartitionedCall/functional_1/tf_op_layer_strided_slice_14/strided_slice_14/begin", "op": "Const", "attr": {"value": {"tensor": {"dtype": "DT_INT32", "tensorShape": {"dim": [{"size": "2"}]}}}, "dtype": {"type": "DT_INT32"}}}, {"name": "StatefulPartitionedCall/functional_1/tf_op_layer_strided_slice_14/strided_slice_14/end", "op": "Const", "attr": {"value": {"tensor": {"dtype": "DT_INT32", "tensorShape": {"dim": [{"size": "2"}]}}}, "dtype": {"type": "DT_INT32"}}}, {"name": "StatefulPartitionedCall/functional_1/tf_op_layer_strided_slice_14/strided_slice_14/strides", "op": "Const", "attr": {"value": {"tensor": {"dtype": "DT_INT32", "tensorShape": {"dim": [{"size": "2"}]}}}, "dtype": {"type": "DT_INT32"}}}, {"name": "ConstantFolding/StatefulPartitionedCall/functional_1/tf_op_layer_RealDiv/RealDiv_recip", "op": "Const", "attr": {"value": {"tensor": {"dtype": "DT_FLOAT", "tensorShape": {}}}, "dtype": {"type": "DT_FLOAT"}}}, {"name": "ConstantFolding/StatefulPartitionedCall/functional_1/tf_op_layer_RealDiv_1/RealDiv_1_recip", "op": "Const", "attr": {"dtype": {"type": "DT_FLOAT"}, "value": {"tensor": {"dtype": "DT_FLOAT", "tensorShape": {"dim": [{"size": "2"}]}}}}}, {"name": "StatefulPartitionedCall/functional_1/tf_op_layer_strided_slice_15/strided_slice_15/begin", "op": "Const", "attr": {"value": {"tensor": {"dtype": "DT_INT32", "tensorShape": {"dim": [{"size": "2"}]}}}, "dtype": {"type": "DT_INT32"}}}, {"name": "StatefulPartitionedCall/functional_1/tf_op_layer_strided_slice_15/strided_slice_15/end", "op": "Const", "attr": {"value": {"tensor": {"dtype": "DT_INT32", "tensorShape": {"dim": [{"size": "2"}]}}}, "dtype": {"type": "DT_INT32"}}}, {"name": "StatefulPartitionedCall/functional_1/tf_op_layer_strided_slice_15/strided_slice_15/strides", "op": "Const", "attr": {"value": {"tensor": {"dtype": "DT_INT32", "tensorShape": {"dim": [{"size": "2"}]}}}, "dtype": {"type": "DT_INT32"}}}, {"name": "StatefulPartitionedCall/functional_1/tf_op_layer_strided_slice_16/strided_slice_16/begin", "op": "Const", "attr": {"value": {"tensor": {"dtype": "DT_INT32", "tensorShape": {"dim": [{"size": "2"}]}}}, "dtype": {"type": "DT_INT32"}}}, {"name": "StatefulPartitionedCall/functional_1/tf_op_layer_strided_slice_16/strided_slice_16/end", "op": "Const", "attr": {"value": {"tensor": {"dtype": "DT_INT32", "tensorShape": {"dim": [{"size": "2"}]}}}, "dtype": {"type": "DT_INT32"}}}, {"name": "StatefulPartitionedCall/functional_1/tf_op_layer_strided_slice_16/strided_slice_16/strides", "op": "Const", "attr": {"dtype": {"type": "DT_INT32"}, "value": {"tensor": {"dtype": "DT_INT32", "tensorShape": {"dim": [{"size": "2"}]}}}}}, {"name": "StatefulPartitionedCall/functional_1/tf_op_layer_strided_slice_12/strided_slice_12/begin", "op": "Const", "attr": {"value": {"tensor": {"dtype": "DT_INT32", "tensorShape": {"dim": [{"size": "2"}]}}}, "dtype": {"type": "DT_INT32"}}}, {"name": "StatefulPartitionedCall/functional_1/tf_op_layer_strided_slice_12/strided_slice_12/end", "op": "Const", "attr": {"dtype": {"type": "DT_INT32"}, "value": {"tensor": {"dtype": "DT_INT32", "tensorShape": {"dim": [{"size": "2"}]}}}}}, {"name": "StatefulPartitionedCall/functional_1/tf_op_layer_strided_slice_12/strided_slice_12/strides", "op": "Const", "attr": {"value": {"tensor": {"dtype": "DT_INT32", "tensorShape": {"dim": [{"size": "2"}]}}}, "dtype": {"type": "DT_INT32"}}}, {"name": "StatefulPartitionedCall/functional_1/tf_op_layer_strided_slice_8/strided_slice_8/begin", "op": "Const", "attr": {"value": {"tensor": {"dtype": "DT_INT32", "tensorShape": {"dim": [{"size": "1"}]}}}, "dtype": {"type": "DT_INT32"}}}, {"name": "StatefulPartitionedCall/functional_1/tf_op_layer_strided_slice_8/strided_slice_8/end", "op": "Const", "attr": {"value": {"tensor": {"dtype": "DT_INT32", "tensorShape": {"dim": [{"size": "1"}]}}}, "dtype": {"type": "DT_INT32"}}}, {"name": "StatefulPartitionedCall/functional_1/tf_op_layer_strided_slice_8/strided_slice_8/strides", "op": "Const", "attr": {"value": {"tensor": {"dtype": "DT_INT32", "tensorShape": {"dim": [{"size": "1"}]}}}, "dtype": {"type": "DT_INT32"}}}, {"name": "StatefulPartitionedCall/functional_1/tf_op_layer_Reshape_10/shape/Reshape_10/shape/1", "op": "Const", "attr": {"value": {"tensor": {"dtype": "DT_INT32", "tensorShape": {}}}, "dtype": {"type": "DT_INT32"}}}, {"name": "StatefulPartitionedCall/functional_1/tf_op_layer_strided_slice_3/strided_slice_3/begin", "op": "Const", "attr": {"value": {"tensor": {"dtype": "DT_INT32", "tensorShape": {"dim": [{"size": "1"}]}}}, "dtype": {"type": "DT_INT32"}}}, {"name": "StatefulPartitionedCall/functional_1/tf_op_layer_strided_slice_3/strided_slice_3/end", "op": "Const", "attr": {"value": {"tensor": {"dtype": "DT_INT32", "tensorShape": {"dim": [{"size": "1"}]}}}, "dtype": {"type": "DT_INT32"}}}, {"name": "StatefulPartitionedCall/functional_1/tf_op_layer_strided_slice_3/strided_slice_3/strides", "op": "Const", "attr": {"value": {"tensor": {"dtype": "DT_INT32", "tensorShape": {"dim": [{"size": "1"}]}}}, "dtype": {"type": "DT_INT32"}}}, {"name": "StatefulPartitionedCall/functional_1/tf_op_layer_strided_slice_2/strided_slice_2/begin", "op": "Const", "attr": {"value": {"tensor": {"dtype": "DT_INT32", "tensorShape": {"dim": [{"size": "1"}]}}}, "dtype": {"type": "DT_INT32"}}}, {"name": "StatefulPartitionedCall/functional_1/tf_op_layer_strided_slice_2/strided_slice_2/end", "op": "Const", "attr": {"value": {"tensor": {"dtype": "DT_INT32", "tensorShape": {"dim": [{"size": "1"}]}}}, "dtype": {"type": "DT_INT32"}}}, {"name": "StatefulPartitionedCall/functional_1/tf_op_layer_strided_slice_2/strided_slice_2/strides", "op": "Const", "attr": {"value": {"tensor": {"dtype": "DT_INT32", "tensorShape": {"dim": [{"size": "1"}]}}}, "dtype": {"type": "DT_INT32"}}}, {"name": "StatefulPartitionedCall/functional_1/tf_op_layer_Prod/Prod/reduction_indices", "op": "Const", "attr": {"value": {"tensor": {"dtype": "DT_INT32", "tensorShape": {"dim": [{"size": "1"}]}}}, "dtype": {"type": "DT_INT32"}}}, {"name": "StatefulPartitionedCall/functional_1/tf_op_layer_Mul/Mul/y", "op": "Const", "attr": {"value": {"tensor": {"dtype": "DT_FLOAT", "tensorShape": {}}}, "dtype": {"type": "DT_FLOAT"}}}, {"name": "StatefulPartitionedCall/functional_1/tf_op_layer_Sub/Sub/y", "op": "Const", "attr": {"value": {"tensor": {"dtype": "DT_FLOAT", "tensorShape": {}}}, "dtype": {"type": "DT_FLOAT"}}}, {"name": "StatefulPartitionedCall/functional_1/tf_op_layer_Tile/Tile/input", "op": "Const", "attr": {"value": {"tensor": {"dtype": "DT_INT32", "tensorShape": {"dim": [{"size": "1"}, {"size": "26"}, {"size": "26"}, {"size": "1"}, {"size": "2"}]}}}, "dtype": {"type": "DT_INT32"}}}, {"name": "StatefulPartitionedCall/functional_1/tf_op_layer_Tile/multiples/Tile/multiples/1", "op": "Const", "attr": {"dtype": {"type": "DT_INT32"}, "value": {"tensor": {"dtype": "DT_INT32", "tensorShape": {}}}}}, {"name": "StatefulPartitionedCall/functional_1/tf_op_layer_Tile/multiples/Tile/multiples/2", "op": "Const", "attr": {"value": {"tensor": {"dtype": "DT_INT32", "tensorShape": {}}}, "dtype": {"type": "DT_INT32"}}}, {"name": "StatefulPartitionedCall/functional_1/tf_op_layer_Tile/multiples/Tile/multiples/3", "op": "Const", "attr": {"value": {"tensor": {"dtype": "DT_INT32", "tensorShape": {}}}, "dtype": {"type": "DT_INT32"}}}, {"name": "StatefulPartitionedCall/functional_1/tf_op_layer_Tile/multiples/Tile/multiples/4", "op": "Const", "attr": {"value": {"tensor": {"dtype": "DT_INT32", "tensorShape": {}}}, "dtype": {"type": "DT_INT32"}}}, {"name": "StatefulPartitionedCall/functional_1/tf_op_layer_Mul_1/Mul_1/y", "op": "Const", "attr": {"value": {"tensor": {"dtype": "DT_FLOAT", "tensorShape": {}}}, "dtype": {"type": "DT_FLOAT"}}}, {"name": "StatefulPartitionedCall/functional_1/tf_op_layer_Mul_2/Mul_2/y", "op": "Const", "attr": {"value": {"tensor": {"dtype": "DT_FLOAT", "tensorShape": {"dim": [{"size": "3"}, {"size": "2"}]}}}, "dtype": {"type": "DT_FLOAT"}}}, {"name": "StatefulPartitionedCall/functional_1/tf_op_layer_concat_7/concat_7/axis", "op": "Const", "attr": {"value": {"tensor": {"dtype": "DT_INT32", "tensorShape": {}}}, "dtype": {"type": "DT_INT32"}}}, {"name": "StatefulPartitionedCall/functional_1/tf_op_layer_Reshape_2/shape/Reshape_2/shape/1", "op": "Const", "attr": {"value": {"tensor": {"dtype": "DT_INT32", "tensorShape": {}}}, "dtype": {"type": "DT_INT32"}}}, {"name": "StatefulPartitionedCall/functional_1/tf_op_layer_Reshape_2/shape/Reshape_2/shape/2", "op": "Const", "attr": {"value": {"tensor": {"dtype": "DT_INT32", "tensorShape": {}}}, "dtype": {"type": "DT_INT32"}}}, {"name": "StatefulPartitionedCall/functional_1/tf_op_layer_Mul_4/Mul_4/y", "op": "Const", "attr": {"value": {"tensor": {"dtype": "DT_FLOAT", "tensorShape": {}}}, "dtype": {"type": "DT_FLOAT"}}}, {"name": "StatefulPartitionedCall/functional_1/tf_op_layer_Sub_1/Sub_1/y", "op": "Const", "attr": {"value": {"tensor": {"dtype": "DT_FLOAT", "tensorShape": {}}}, "dtype": {"type": "DT_FLOAT"}}}, {"name": "StatefulPartitionedCall/functional_1/tf_op_layer_Tile_1/Tile_1/input", "op": "Const", "attr": {"value": {"tensor": {"dtype": "DT_INT32", "tensorShape": {"dim": [{"size": "1"}, {"size": "13"}, {"size": "13"}, {"size": "1"}, {"size": "2"}]}}}, "dtype": {"type": "DT_INT32"}}}, {"name": "StatefulPartitionedCall/functional_1/tf_op_layer_Tile_1/multiples/Tile_1/multiples/1", "op": "Const", "attr": {"value": {"tensor": {"dtype": "DT_INT32", "tensorShape": {}}}, "dtype": {"type": "DT_INT32"}}}, {"name": "StatefulPartitionedCall/functional_1/tf_op_layer_Tile_1/multiples/Tile_1/multiples/2", "op": "Const", "attr": {"value": {"tensor": {"dtype": "DT_INT32", "tensorShape": {}}}, "dtype": {"type": "DT_INT32"}}}, {"name": "StatefulPartitionedCall/functional_1/tf_op_layer_Tile_1/multiples/Tile_1/multiples/3", "op": "Const", "attr": {"value": {"tensor": {"dtype": "DT_INT32", "tensorShape": {}}}, "dtype": {"type": "DT_INT32"}}}, {"name": "StatefulPartitionedCall/functional_1/tf_op_layer_Tile_1/multiples/Tile_1/multiples/4", "op": "Const", "attr": {"value": {"tensor": {"dtype": "DT_INT32", "tensorShape": {}}}, "dtype": {"type": "DT_INT32"}}}, {"name": "StatefulPartitionedCall/functional_1/tf_op_layer_Mul_5/Mul_5/y", "op": "Const", "attr": {"value": {"tensor": {"dtype": "DT_FLOAT", "tensorShape": {}}}, "dtype": {"type": "DT_FLOAT"}}}, {"name": "StatefulPartitionedCall/functional_1/tf_op_layer_Mul_6/Mul_6/y", "op": "Const", "attr": {"value": {"tensor": {"dtype": "DT_FLOAT", "tensorShape": {"dim": [{"size": "3"}, {"size": "2"}]}}}, "dtype": {"type": "DT_FLOAT"}}}, {"name": "StatefulPartitionedCall/functional_1/tf_op_layer_concat_8/concat_8/axis", "op": "Const", "attr": {"value": {"tensor": {"dtype": "DT_INT32", "tensorShape": {}}}, "dtype": {"type": "DT_INT32"}}}, {"name": "StatefulPartitionedCall/functional_1/tf_op_layer_Reshape_5/shape/Reshape_5/shape/1", "op": "Const", "attr": {"value": {"tensor": {"dtype": "DT_INT32", "tensorShape": {}}}, "dtype": {"type": "DT_INT32"}}}, {"name": "StatefulPartitionedCall/functional_1/tf_op_layer_Reshape_5/shape/Reshape_5/shape/2", "op": "Const", "attr": {"value": {"tensor": {"dtype": "DT_INT32", "tensorShape": {}}}, "dtype": {"type": "DT_INT32"}}}, {"name": "StatefulPartitionedCall/functional_1/tf_op_layer_concat_9/concat_9/axis", "op": "Const", "attr": {"value": {"tensor": {"dtype": "DT_INT32", "tensorShape": {}}}, "dtype": {"type": "DT_INT32"}}}, {"name": "StatefulPartitionedCall/functional_1/tf_op_layer_strided_slice_4/strided_slice_4/begin", "op": "Const", "attr": {"value": {"tensor": {"dtype": "DT_INT32", "tensorShape": {"dim": [{"size": "1"}]}}}, "dtype": {"type": "DT_INT32"}}}, {"name": "StatefulPartitionedCall/functional_1/tf_op_layer_strided_slice_4/strided_slice_4/end", "op": "Const", "attr": {"value": {"tensor": {"dtype": "DT_INT32", "tensorShape": {"dim": [{"size": "1"}]}}}, "dtype": {"type": "DT_INT32"}}}, {"name": "StatefulPartitionedCall/functional_1/tf_op_layer_strided_slice_4/strided_slice_4/strides", "op": "Const", "attr": {"value": {"tensor": {"dtype": "DT_INT32", "tensorShape": {"dim": [{"size": "1"}]}}}, "dtype": {"type": "DT_INT32"}}}, {"name": "StatefulPartitionedCall/functional_1/tf_op_layer_concat_11/concat_11/axis", "op": "Const", "attr": {"value": {"tensor": {"dtype": "DT_INT32", "tensorShape": {}}}, "dtype": {"type": "DT_INT32"}}}, {"name": "StatefulPartitionedCall/functional_1/tf_op_layer_Reshape_7/Reshape_7/shape", "op": "Const", "attr": {"value": {"tensor": {"dtype": "DT_INT32", "tensorShape": {"dim": [{"size": "1"}]}}}, "dtype": {"type": "DT_INT32"}}}, {"name": "StatefulPartitionedCall/functional_1/tf_op_layer_GatherV2/GatherV2/axis", "op": "Const", "attr": {"dtype": {"type": "DT_INT32"}, "value": {"tensor": {"dtype": "DT_INT32", "tensorShape": {}}}}}, {"name": "StatefulPartitionedCall/functional_1/tf_op_layer_strided_slice_9/strided_slice_9/begin", "op": "Const", "attr": {"dtype": {"type": "DT_INT32"}, "value": {"tensor": {"dtype": "DT_INT32", "tensorShape": {"dim": [{"size": "1"}]}}}}}, {"name": "StatefulPartitionedCall/functional_1/tf_op_layer_strided_slice_9/strided_slice_9/end", "op": "Const", "attr": {"value": {"tensor": {"dtype": "DT_INT32", "tensorShape": {"dim": [{"size": "1"}]}}}, "dtype": {"type": "DT_INT32"}}}, {"name": "StatefulPartitionedCall/functional_1/tf_op_layer_strided_slice_9/strided_slice_9/strides", "op": "Const", "attr": {"value": {"tensor": {"dtype": "DT_INT32", "tensorShape": {"dim": [{"size": "1"}]}}}, "dtype": {"type": "DT_INT32"}}}, {"name": "StatefulPartitionedCall/functional_1/tf_op_layer_split_5/split_5/size_splits", "op": "Const", "attr": {"value": {"tensor": {"dtype": "DT_INT32", "tensorShape": {"dim": [{"size": "2"}]}}}, "dtype": {"type": "DT_INT32"}}}, {"name": "StatefulPartitionedCall/functional_1/tf_op_layer_split_5/split_5/split_dim", "op": "Const", "attr": {"value": {"tensor": {"dtype": "DT_INT32", "tensorShape": {}}}, "dtype": {"type": "DT_INT32"}}}, {"name": "StatefulPartitionedCall/functional_1/tf_op_layer_strided_slice_13/strided_slice_13/begin", "op": "Const", "attr": {"value": {"tensor": {"dtype": "DT_INT32", "tensorShape": {"dim": [{"size": "2"}]}}}, "dtype": {"type": "DT_INT32"}}}, {"name": "StatefulPartitionedCall/functional_1/tf_op_layer_strided_slice_13/strided_slice_13/end", "op": "Const", "attr": {"value": {"tensor": {"dtype": "DT_INT32", "tensorShape": {"dim": [{"size": "2"}]}}}, "dtype": {"type": "DT_INT32"}}}, {"name": "StatefulPartitionedCall/functional_1/tf_op_layer_strided_slice_13/strided_slice_13/strides", "op": "Const", "attr": {"value": {"tensor": {"dtype": "DT_INT32", "tensorShape": {"dim": [{"size": "2"}]}}}, "dtype": {"type": "DT_INT32"}}}, {"name": "ConstantFolding/StatefulPartitionedCall/functional_1/tf_op_layer_RealDiv_2/RealDiv_2_recip", "op": "Const", "attr": {"value": {"tensor": {"dtype": "DT_FLOAT", "tensorShape": {}}}, "dtype": {"type": "DT_FLOAT"}}}, {"name": "ConstantFolding/StatefulPartitionedCall/functional_1/tf_op_layer_RealDiv_3/RealDiv_3_recip", "op": "Const", "attr": {"value": {"tensor": {"dtype": "DT_FLOAT", "tensorShape": {"dim": [{"size": "2"}]}}}, "dtype": {"type": "DT_FLOAT"}}}, {"name": "StatefulPartitionedCall/functional_1/tf_op_layer_strided_slice_17/strided_slice_17/begin", "op": "Const", "attr": {"value": {"tensor": {"dtype": "DT_INT32", "tensorShape": {"dim": [{"size": "2"}]}}}, "dtype": {"type": "DT_INT32"}}}, {"name": "StatefulPartitionedCall/functional_1/tf_op_layer_strided_slice_17/strided_slice_17/end", "op": "Const", "attr": {"value": {"tensor": {"dtype": "DT_INT32", "tensorShape": {"dim": [{"size": "2"}]}}}, "dtype": {"type": "DT_INT32"}}}, {"name": "StatefulPartitionedCall/functional_1/tf_op_layer_strided_slice_17/strided_slice_17/strides", "op": "Const", "attr": {"value": {"tensor": {"dtype": "DT_INT32", "tensorShape": {"dim": [{"size": "2"}]}}}, "dtype": {"type": "DT_INT32"}}}, {"name": "StatefulPartitionedCall/functional_1/tf_op_layer_strided_slice_10/strided_slice_10/begin", "op": "Const", "attr": {"value": {"tensor": {"dtype": "DT_INT32", "tensorShape": {"dim": [{"size": "1"}]}}}, "dtype": {"type": "DT_INT32"}}}, {"name": "StatefulPartitionedCall/functional_1/tf_op_layer_strided_slice_10/strided_slice_10/end", "op": "Const", "attr": {"value": {"tensor": {"dtype": "DT_INT32", "tensorShape": {"dim": [{"size": "1"}]}}}, "dtype": {"type": "DT_INT32"}}}, {"name": "StatefulPartitionedCall/functional_1/tf_op_layer_strided_slice_10/strided_slice_10/strides", "op": "Const", "attr": {"value": {"tensor": {"dtype": "DT_INT32", "tensorShape": {"dim": [{"size": "1"}]}}}, "dtype": {"type": "DT_INT32"}}}, {"name": "StatefulPartitionedCall/functional_1/tf_op_layer_Reshape_11/shape/Reshape_11/shape/1", "op": "Const", "attr": {"value": {"tensor": {"dtype": "DT_INT32", "tensorShape": {}}}, "dtype": {"type": "DT_INT32"}}}, {"name": "StatefulPartitionedCall/functional_1/tf_op_layer_strided_slice_6/strided_slice_6/begin", "op": "Const", "attr": {"value": {"tensor": {"dtype": "DT_INT32", "tensorShape": {"dim": [{"size": "1"}]}}}, "dtype": {"type": "DT_INT32"}}}, {"name": "StatefulPartitionedCall/functional_1/tf_op_layer_strided_slice_6/strided_slice_6/end", "op": "Const", "attr": {"value": {"tensor": {"dtype": "DT_INT32", "tensorShape": {"dim": [{"size": "1"}]}}}, "dtype": {"type": "DT_INT32"}}}, {"name": "StatefulPartitionedCall/functional_1/tf_op_layer_strided_slice_6/strided_slice_6/strides", "op": "Const", "attr": {"value": {"tensor": {"dtype": "DT_INT32", "tensorShape": {"dim": [{"size": "1"}]}}}, "dtype": {"type": "DT_INT32"}}}, {"name": "StatefulPartitionedCall/functional_1/tf_op_layer_strided_slice_5/strided_slice_5/begin", "op": "Const", "attr": {"dtype": {"type": "DT_INT32"}, "value": {"tensor": {"dtype": "DT_INT32", "tensorShape": {"dim": [{"size": "1"}]}}}}}, {"name": "StatefulPartitionedCall/functional_1/tf_op_layer_strided_slice_5/strided_slice_5/end", "op": "Const", "attr": {"value": {"tensor": {"dtype": "DT_INT32", "tensorShape": {"dim": [{"size": "1"}]}}}, "dtype": {"type": "DT_INT32"}}}, {"name": "StatefulPartitionedCall/functional_1/tf_op_layer_strided_slice_5/strided_slice_5/strides", "op": "Const", "attr": {"value": {"tensor": {"dtype": "DT_INT32", "tensorShape": {"dim": [{"size": "1"}]}}}, "dtype": {"type": "DT_INT32"}}}, {"name": "StatefulPartitionedCall/functional_1/tf_op_layer_Prod_1/Prod_1/reduction_indices", "op": "Const", "attr": {"dtype": {"type": "DT_INT32"}, "value": {"tensor": {"dtype": "DT_INT32", "tensorShape": {"dim": [{"size": "1"}]}}}}}, {"name": "StatefulPartitionedCall/functional_1/tf_op_layer_strided_slice_7/strided_slice_7/begin", "op": "Const", "attr": {"value": {"tensor": {"dtype": "DT_INT32", "tensorShape": {"dim": [{"size": "1"}]}}}, "dtype": {"type": "DT_INT32"}}}, {"name": "StatefulPartitionedCall/functional_1/tf_op_layer_strided_slice_7/strided_slice_7/end", "op": "Const", "attr": {"value": {"tensor": {"dtype": "DT_INT32", "tensorShape": {"dim": [{"size": "1"}]}}}, "dtype": {"type": "DT_INT32"}}}, {"name": "StatefulPartitionedCall/functional_1/tf_op_layer_strided_slice_7/strided_slice_7/strides", "op": "Const", "attr": {"value": {"tensor": {"dtype": "DT_INT32", "tensorShape": {"dim": [{"size": "1"}]}}}, "dtype": {"type": "DT_INT32"}}}, {"name": "StatefulPartitionedCall/functional_1/tf_op_layer_concat_12/concat_12/axis", "op": "Const", "attr": {"value": {"tensor": {"dtype": "DT_INT32", "tensorShape": {}}}, "dtype": {"type": "DT_INT32"}}}, {"name": "StatefulPartitionedCall/functional_1/tf_op_layer_Reshape/shape/Reshape/shape/1", "op": "Const", "attr": {"dtype": {"type": "DT_INT32"}, "value": {"tensor": {"dtype": "DT_INT32", "tensorShape": {}}}}}, {"name": "StatefulPartitionedCall/functional_1/tf_op_layer_Reshape/shape/Reshape/shape/2", "op": "Const", "attr": {"value": {"tensor": {"dtype": "DT_INT32", "tensorShape": {}}}, "dtype": {"type": "DT_INT32"}}}, {"name": "StatefulPartitionedCall/functional_1/tf_op_layer_Reshape/shape/Reshape/shape/3", "op": "Const", "attr": {"value": {"tensor": {"dtype": "DT_INT32", "tensorShape": {}}}, "dtype": {"type": "DT_INT32"}}}, {"name": "StatefulPartitionedCall/functional_1/tf_op_layer_Reshape/shape/Reshape/shape/4", "op": "Const", "attr": {"value": {"tensor": {"dtype": "DT_INT32", "tensorShape": {}}}, "dtype": {"type": "DT_INT32"}}}, {"name": "StatefulPartitionedCall/functional_1/tf_op_layer_split_3/split_3/size_splits", "op": "Const", "attr": {"value": {"tensor": {"dtype": "DT_INT32", "tensorShape": {"dim": [{"size": "4"}]}}}, "dtype": {"type": "DT_INT32"}}}, {"name": "StatefulPartitionedCall/functional_1/tf_op_layer_split_3/split_3/split_dim", "op": "Const", "attr": {"value": {"tensor": {"dtype": "DT_INT32", "tensorShape": {}}}, "dtype": {"type": "DT_INT32"}}}, {"name": "StatefulPartitionedCall/functional_1/tf_op_layer_ResizeBilinear/ResizeBilinear/size", "op": "Const", "attr": {"value": {"tensor": {"dtype": "DT_INT32", "tensorShape": {"dim": [{"size": "2"}]}}}, "dtype": {"type": "DT_INT32"}}}, {"name": "StatefulPartitionedCall/functional_1/tf_op_layer_concat_6/concat_6/axis", "op": "Const", "attr": {"value": {"tensor": {"dtype": "DT_INT32", "tensorShape": {}}}, "dtype": {"type": "DT_INT32"}}}, {"name": "unknown_96", "op": "Const", "attr": {"value": {"tensor": {"dtype": "DT_FLOAT", "tensorShape": {"dim": [{"size": "1"}, {"size": "1"}, {"size": "256"}, {"size": "18"}]}}}, "dtype": {"type": "DT_FLOAT"}}}, {"name": "unknown_97", "op": "Const", "attr": {"value": {"tensor": {"dtype": "DT_FLOAT", "tensorShape": {"dim": [{"size": "18"}]}}}, "dtype": {"type": "DT_FLOAT"}}}, {"name": "StatefulPartitionedCall/functional_1/tf_op_layer_strided_slice/strided_slice/begin", "op": "Const", "attr": {"value": {"tensor": {"dtype": "DT_INT32", "tensorShape": {"dim": [{"size": "1"}]}}}, "dtype": {"type": "DT_INT32"}}}, {"name": "StatefulPartitionedCall/functional_1/tf_op_layer_strided_slice/strided_slice/end", "op": "Const", "attr": {"dtype": {"type": "DT_INT32"}, "value": {"tensor": {"dtype": "DT_INT32", "tensorShape": {"dim": [{"size": "1"}]}}}}}, {"name": "StatefulPartitionedCall/functional_1/tf_op_layer_strided_slice/strided_slice/strides", "op": "Const", "attr": {"value": {"tensor": {"dtype": "DT_INT32", "tensorShape": {"dim": [{"size": "1"}]}}}, "dtype": {"type": "DT_INT32"}}}, {"name": "StatefulPartitionedCall/functional_1/tf_op_layer_Reshape_1/shape/Reshape_1/shape/1", "op": "Const", "attr": {"value": {"tensor": {"dtype": "DT_INT32", "tensorShape": {}}}, "dtype": {"type": "DT_INT32"}}}, {"name": "StatefulPartitionedCall/functional_1/tf_op_layer_Reshape_1/shape/Reshape_1/shape/2", "op": "Const", "attr": {"value": {"tensor": {"dtype": "DT_INT32", "tensorShape": {}}}, "dtype": {"type": "DT_INT32"}}}, {"name": "StatefulPartitionedCall/functional_1/tf_op_layer_Reshape_3/shape/Reshape_3/shape/1", "op": "Const", "attr": {"value": {"tensor": {"dtype": "DT_INT32", "tensorShape": {}}}, "dtype": {"type": "DT_INT32"}}}, {"name": "StatefulPartitionedCall/functional_1/tf_op_layer_Reshape_3/shape/Reshape_3/shape/2", "op": "Const", "attr": {"value": {"tensor": {"dtype": "DT_INT32", "tensorShape": {}}}, "dtype": {"type": "DT_INT32"}}}, {"name": "StatefulPartitionedCall/functional_1/tf_op_layer_Reshape_3/shape/Reshape_3/shape/3", "op": "Const", "attr": {"value": {"tensor": {"dtype": "DT_INT32", "tensorShape": {}}}, "dtype": {"type": "DT_INT32"}}}, {"name": "StatefulPartitionedCall/functional_1/tf_op_layer_Reshape_3/shape/Reshape_3/shape/4", "op": "Const", "attr": {"value": {"tensor": {"dtype": "DT_INT32", "tensorShape": {}}}, "dtype": {"type": "DT_INT32"}}}, {"name": "StatefulPartitionedCall/functional_1/tf_op_layer_split_4/split_4/size_splits", "op": "Const", "attr": {"value": {"tensor": {"dtype": "DT_INT32", "tensorShape": {"dim": [{"size": "4"}]}}}, "dtype": {"type": "DT_INT32"}}}, {"name": "StatefulPartitionedCall/functional_1/tf_op_layer_split_4/split_4/split_dim", "op": "Const", "attr": {"value": {"tensor": {"dtype": "DT_INT32", "tensorShape": {}}}, "dtype": {"type": "DT_INT32"}}}, {"name": "StatefulPartitionedCall/functional_1/tf_op_layer_split_2/split_2/split_dim", "op": "Const", "attr": {"value": {"tensor": {"dtype": "DT_INT32", "tensorShape": {}}}, "dtype": {"type": "DT_INT32"}}}, {"name": "StatefulPartitionedCall/functional_1/tf_op_layer_split_1/split_1/split_dim", "op": "Const", "attr": {"value": {"tensor": {"dtype": "DT_INT32", "tensorShape": {}}}, "dtype": {"type": "DT_INT32"}}}, {"name": "StatefulPartitionedCall/functional_1/tf_op_layer_split/split/split_dim", "op": "Const", "attr": {"dtype": {"type": "DT_INT32"}, "value": {"tensor": {"dtype": "DT_INT32", "tensorShape": {}}}}}, {"name": "StatefulPartitionedCall/functional_1/zero_padding2d/Pad/paddings", "op": "Const", "attr": {"value": {"tensor": {"dtype": "DT_INT32", "tensorShape": {"dim": [{"size": "4"}, {"size": "2"}]}}}, "dtype": {"type": "DT_INT32"}}}, {"name": "StatefulPartitionedCall/functional_1/zero_padding2d_1/Pad/paddings", "op": "Const", "attr": {"value": {"tensor": {"dtype": "DT_INT32", "tensorShape": {"dim": [{"size": "4"}, {"size": "2"}]}}}, "dtype": {"type": "DT_INT32"}}}, {"name": "StatefulPartitionedCall/functional_1/tf_op_layer_concat/concat/axis", "op": "Const", "attr": {"value": {"tensor": {"dtype": "DT_INT32", "tensorShape": {}}}, "dtype": {"type": "DT_INT32"}}}, {"name": "StatefulPartitionedCall/functional_1/tf_op_layer_concat_1/concat_1/axis", "op": "Const", "attr": {"value": {"tensor": {"dtype": "DT_INT32", "tensorShape": {}}}, "dtype": {"type": "DT_INT32"}}}, {"name": "StatefulPartitionedCall/functional_1/tf_op_layer_concat_2/concat_2/axis", "op": "Const", "attr": {"dtype": {"type": "DT_INT32"}, "value": {"tensor": {"dtype": "DT_INT32", "tensorShape": {}}}}}, {"name": "StatefulPartitionedCall/functional_1/tf_op_layer_concat_3/concat_3/axis", "op": "Const", "attr": {"value": {"tensor": {"dtype": "DT_INT32", "tensorShape": {}}}, "dtype": {"type": "DT_INT32"}}}, {"name": "StatefulPartitionedCall/functional_1/tf_op_layer_concat_4/concat_4/axis", "op": "Const", "attr": {"value": {"tensor": {"dtype": "DT_INT32", "tensorShape": {}}}, "dtype": {"type": "DT_INT32"}}}, {"name": "StatefulPartitionedCall/functional_1/tf_op_layer_concat_5/concat_5/axis", "op": "Const", "attr": {"value": {"tensor": {"dtype": "DT_INT32", "tensorShape": {}}}, "dtype": {"type": "DT_INT32"}}}, {"name": "unknown_94", "op": "Const", "attr": {"value": {"tensor": {"dtype": "DT_FLOAT", "tensorShape": {"dim": [{"size": "1"}, {"size": "1"}, {"size": "512"}, {"size": "18"}]}}}, "dtype": {"type": "DT_FLOAT"}}}, {"name": "unknown_95", "op": "Const", "attr": {"value": {"tensor": {"dtype": "DT_FLOAT", "tensorShape": {"dim": [{"size": "18"}]}}}, "dtype": {"type": "DT_FLOAT"}}}, {"name": "StatefulPartitionedCall/functional_1/tf_op_layer_strided_slice_1/strided_slice_1/begin", "op": "Const", "attr": {"value": {"tensor": {"dtype": "DT_INT32", "tensorShape": {"dim": [{"size": "1"}]}}}, "dtype": {"type": "DT_INT32"}}}, {"name": "StatefulPartitionedCall/functional_1/tf_op_layer_strided_slice_1/strided_slice_1/end", "op": "Const", "attr": {"value": {"tensor": {"dtype": "DT_INT32", "tensorShape": {"dim": [{"size": "1"}]}}}, "dtype": {"type": "DT_INT32"}}}, {"name": "StatefulPartitionedCall/functional_1/tf_op_layer_strided_slice_1/strided_slice_1/strides", "op": "Const", "attr": {"value": {"tensor": {"dtype": "DT_INT32", "tensorShape": {"dim": [{"size": "1"}]}}}, "dtype": {"type": "DT_INT32"}}}, {"name": "StatefulPartitionedCall/functional_1/tf_op_layer_Reshape_4/shape/Reshape_4/shape/1", "op": "Const", "attr": {"value": {"tensor": {"dtype": "DT_INT32", "tensorShape": {}}}, "dtype": {"type": "DT_INT32"}}}, {"name": "StatefulPartitionedCall/functional_1/tf_op_layer_Reshape_4/shape/Reshape_4/shape/2", "op": "Const", "attr": {"value": {"tensor": {"dtype": "DT_INT32", "tensorShape": {}}}, "dtype": {"type": "DT_INT32"}}}, {"name": "StatefulPartitionedCall/functional_1/tf_op_layer_concat_10/concat_10/axis", "op": "Const", "attr": {"value": {"tensor": {"dtype": "DT_INT32", "tensorShape": {}}}, "dtype": {"type": "DT_INT32"}}}, {"name": "StatefulPartitionedCall/functional_1/tf_op_layer_Max/Max/reduction_indices", "op": "Const", "attr": {"value": {"tensor": {"dtype": "DT_INT32", "tensorShape": {}}}, "dtype": {"type": "DT_INT32"}}}, {"name": "StatefulPartitionedCall/functional_1/tf_op_layer_GreaterEqual/GreaterEqual/y", "op": "Const", "attr": {"value": {"tensor": {"dtype": "DT_FLOAT", "tensorShape": {}}}, "dtype": {"type": "DT_FLOAT"}}}, {"name": "StatefulPartitionedCall/functional_1/tf_op_layer_Reshape_9/Reshape_9/shape", "op": "Const", "attr": {"value": {"tensor": {"dtype": "DT_INT32", "tensorShape": {"dim": [{"size": "1"}]}}}, "dtype": {"type": "DT_INT32"}}}, {"name": "StatefulPartitionedCall/functional_1/tf_op_layer_GatherV2_1/GatherV2_1/axis", "op": "Const", "attr": {"dtype": {"type": "DT_INT32"}, "value": {"tensor": {"dtype": "DT_INT32", "tensorShape": {}}}}}, {"name": "StatefulPartitionedCall/functional_1/tf_op_layer_strided_slice_11/strided_slice_11/begin", "op": "Const", "attr": {"value": {"tensor": {"dtype": "DT_INT32", "tensorShape": {"dim": [{"size": "1"}]}}}, "dtype": {"type": "DT_INT32"}}}, {"name": "StatefulPartitionedCall/functional_1/tf_op_layer_strided_slice_11/strided_slice_11/end", "op": "Const", "attr": {"value": {"tensor": {"dtype": "DT_INT32", "tensorShape": {"dim": [{"size": "1"}]}}}, "dtype": {"type": "DT_INT32"}}}, {"name": "StatefulPartitionedCall/functional_1/tf_op_layer_strided_slice_11/strided_slice_11/strides", "op": "Const", "attr": {"value": {"tensor": {"dtype": "DT_INT32", "tensorShape": {"dim": [{"size": "1"}]}}}, "dtype": {"type": "DT_INT32"}}}, {"name": "StatefulPartitionedCall/functional_1/tf_op_layer_concat_14/concat_14/axis", "op": "Const", "attr": {"value": {"tensor": {"dtype": "DT_INT32", "tensorShape": {}}}, "dtype": {"type": "DT_INT32"}}}, {"name": "input_1", "op": "Placeholder", "attr": {"dtype": {"type": "DT_FLOAT"}, "shape": {"shape": {"dim": [{"size": "-1"}, {"size": "416"}, {"size": "416"}, {"size": "3"}]}}}}, {"name": "StatefulPartitionedCall/functional_1/conv2d/Conv2D_weights", "op": "Const", "attr": {"value": {"tensor": {"dtype": "DT_FLOAT", "tensorShape": {"dim": [{"size": "3"}, {"size": "3"}, {"size": "3"}, {"size": "32"}]}}}, "dtype": {"type": "DT_FLOAT"}}}, {"name": "StatefulPartitionedCall/functional_1/conv2d/Conv2D_bn_offset", "op": "Const", "attr": {"value": {"tensor": {"dtype": "DT_FLOAT", "tensorShape": {"dim": [{"size": "32"}]}}}, "dtype": {"type": "DT_FLOAT"}}}, {"name": "StatefulPartitionedCall/functional_1/conv2d_1/Conv2D_weights", "op": "Const", "attr": {"value": {"tensor": {"dtype": "DT_FLOAT", "tensorShape": {"dim": [{"size": "3"}, {"size": "3"}, {"size": "32"}, {"size": "64"}]}}}, "dtype": {"type": "DT_FLOAT"}}}, {"name": "StatefulPartitionedCall/functional_1/conv2d_1/Conv2D_bn_offset", "op": "Const", "attr": {"value": {"tensor": {"dtype": "DT_FLOAT", "tensorShape": {"dim": [{"size": "64"}]}}}, "dtype": {"type": "DT_FLOAT"}}}, {"name": "StatefulPartitionedCall/functional_1/conv2d_2/Conv2D_weights", "op": "Const", "attr": {"value": {"tensor": {"dtype": "DT_FLOAT", "tensorShape": {"dim": [{"size": "3"}, {"size": "3"}, {"size": "64"}, {"size": "64"}]}}}, "dtype": {"type": "DT_FLOAT"}}}, {"name": "StatefulPartitionedCall/functional_1/conv2d_2/Conv2D_bn_offset", "op": "Const", "attr": {"value": {"tensor": {"dtype": "DT_FLOAT", "tensorShape": {"dim": [{"size": "64"}]}}}, "dtype": {"type": "DT_FLOAT"}}}, {"name": "StatefulPartitionedCall/functional_1/conv2d_3/Conv2D_weights", "op": "Const", "attr": {"value": {"tensor": {"dtype": "DT_FLOAT", "tensorShape": {"dim": [{"size": "3"}, {"size": "3"}, {"size": "32"}, {"size": "32"}]}}}, "dtype": {"type": "DT_FLOAT"}}}, {"name": "StatefulPartitionedCall/functional_1/conv2d_3/Conv2D_bn_offset", "op": "Const", "attr": {"value": {"tensor": {"dtype": "DT_FLOAT", "tensorShape": {"dim": [{"size": "32"}]}}}, "dtype": {"type": "DT_FLOAT"}}}, {"name": "StatefulPartitionedCall/functional_1/conv2d_4/Conv2D_weights", "op": "Const", "attr": {"value": {"tensor": {"dtype": "DT_FLOAT", "tensorShape": {"dim": [{"size": "3"}, {"size": "3"}, {"size": "32"}, {"size": "32"}]}}}, "dtype": {"type": "DT_FLOAT"}}}, {"name": "StatefulPartitionedCall/functional_1/conv2d_4/Conv2D_bn_offset", "op": "Const", "attr": {"value": {"tensor": {"dtype": "DT_FLOAT", "tensorShape": {"dim": [{"size": "32"}]}}}, "dtype": {"type": "DT_FLOAT"}}}, {"name": "StatefulPartitionedCall/functional_1/conv2d_5/Conv2D_weights", "op": "Const", "attr": {"value": {"tensor": {"dtype": "DT_FLOAT", "tensorShape": {"dim": [{"size": "1"}, {"size": "1"}, {"size": "64"}, {"size": "64"}]}}}, "dtype": {"type": "DT_FLOAT"}}}, {"name": "StatefulPartitionedCall/functional_1/conv2d_5/Conv2D_bn_offset", "op": "Const", "attr": {"value": {"tensor": {"dtype": "DT_FLOAT", "tensorShape": {"dim": [{"size": "64"}]}}}, "dtype": {"type": "DT_FLOAT"}}}, {"name": "StatefulPartitionedCall/functional_1/conv2d_6/Conv2D_weights", "op": "Const", "attr": {"value": {"tensor": {"dtype": "DT_FLOAT", "tensorShape": {"dim": [{"size": "3"}, {"size": "3"}, {"size": "128"}, {"size": "128"}]}}}, "dtype": {"type": "DT_FLOAT"}}}, {"name": "StatefulPartitionedCall/functional_1/conv2d_6/Conv2D_bn_offset", "op": "Const", "attr": {"value": {"tensor": {"dtype": "DT_FLOAT", "tensorShape": {"dim": [{"size": "128"}]}}}, "dtype": {"type": "DT_FLOAT"}}}, {"name": "StatefulPartitionedCall/functional_1/conv2d_7/Conv2D_weights", "op": "Const", "attr": {"value": {"tensor": {"dtype": "DT_FLOAT", "tensorShape": {"dim": [{"size": "3"}, {"size": "3"}, {"size": "64"}, {"size": "64"}]}}}, "dtype": {"type": "DT_FLOAT"}}}, {"name": "StatefulPartitionedCall/functional_1/conv2d_7/Conv2D_bn_offset", "op": "Const", "attr": {"dtype": {"type": "DT_FLOAT"}, "value": {"tensor": {"dtype": "DT_FLOAT", "tensorShape": {"dim": [{"size": "64"}]}}}}}, {"name": "StatefulPartitionedCall/functional_1/conv2d_8/Conv2D_weights", "op": "Const", "attr": {"value": {"tensor": {"dtype": "DT_FLOAT", "tensorShape": {"dim": [{"size": "3"}, {"size": "3"}, {"size": "64"}, {"size": "64"}]}}}, "dtype": {"type": "DT_FLOAT"}}}, {"name": "StatefulPartitionedCall/functional_1/conv2d_8/Conv2D_bn_offset", "op": "Const", "attr": {"value": {"tensor": {"dtype": "DT_FLOAT", "tensorShape": {"dim": [{"size": "64"}]}}}, "dtype": {"type": "DT_FLOAT"}}}, {"name": "StatefulPartitionedCall/functional_1/conv2d_9/Conv2D_weights", "op": "Const", "attr": {"value": {"tensor": {"dtype": "DT_FLOAT", "tensorShape": {"dim": [{"size": "1"}, {"size": "1"}, {"size": "128"}, {"size": "128"}]}}}, "dtype": {"type": "DT_FLOAT"}}}, {"name": "StatefulPartitionedCall/functional_1/conv2d_9/Conv2D_bn_offset", "op": "Const", "attr": {"value": {"tensor": {"dtype": "DT_FLOAT", "tensorShape": {"dim": [{"size": "128"}]}}}, "dtype": {"type": "DT_FLOAT"}}}, {"name": "StatefulPartitionedCall/functional_1/conv2d_10/Conv2D_weights", "op": "Const", "attr": {"value": {"tensor": {"dtype": "DT_FLOAT", "tensorShape": {"dim": [{"size": "3"}, {"size": "3"}, {"size": "256"}, {"size": "256"}]}}}, "dtype": {"type": "DT_FLOAT"}}}, {"name": "StatefulPartitionedCall/functional_1/conv2d_10/Conv2D_bn_offset", "op": "Const", "attr": {"dtype": {"type": "DT_FLOAT"}, "value": {"tensor": {"dtype": "DT_FLOAT", "tensorShape": {"dim": [{"size": "256"}]}}}}}, {"name": "StatefulPartitionedCall/functional_1/conv2d_11/Conv2D_weights", "op": "Const", "attr": {"value": {"tensor": {"dtype": "DT_FLOAT", "tensorShape": {"dim": [{"size": "3"}, {"size": "3"}, {"size": "128"}, {"size": "128"}]}}}, "dtype": {"type": "DT_FLOAT"}}}, {"name": "StatefulPartitionedCall/functional_1/conv2d_11/Conv2D_bn_offset", "op": "Const", "attr": {"value": {"tensor": {"dtype": "DT_FLOAT", "tensorShape": {"dim": [{"size": "128"}]}}}, "dtype": {"type": "DT_FLOAT"}}}, {"name": "StatefulPartitionedCall/functional_1/conv2d_12/Conv2D_weights", "op": "Const", "attr": {"value": {"tensor": {"dtype": "DT_FLOAT", "tensorShape": {"dim": [{"size": "3"}, {"size": "3"}, {"size": "128"}, {"size": "128"}]}}}, "dtype": {"type": "DT_FLOAT"}}}, {"name": "StatefulPartitionedCall/functional_1/conv2d_12/Conv2D_bn_offset", "op": "Const", "attr": {"dtype": {"type": "DT_FLOAT"}, "value": {"tensor": {"dtype": "DT_FLOAT", "tensorShape": {"dim": [{"size": "128"}]}}}}}, {"name": "StatefulPartitionedCall/functional_1/conv2d_13/Conv2D_weights", "op": "Const", "attr": {"value": {"tensor": {"dtype": "DT_FLOAT", "tensorShape": {"dim": [{"size": "1"}, {"size": "1"}, {"size": "256"}, {"size": "256"}]}}}, "dtype": {"type": "DT_FLOAT"}}}, {"name": "StatefulPartitionedCall/functional_1/conv2d_13/Conv2D_bn_offset", "op": "Const", "attr": {"value": {"tensor": {"dtype": "DT_FLOAT", "tensorShape": {"dim": [{"size": "256"}]}}}, "dtype": {"type": "DT_FLOAT"}}}, {"name": "StatefulPartitionedCall/functional_1/conv2d_14/Conv2D_weights", "op": "Const", "attr": {"value": {"tensor": {"dtype": "DT_FLOAT", "tensorShape": {"dim": [{"size": "3"}, {"size": "3"}, {"size": "512"}, {"size": "512"}]}}}, "dtype": {"type": "DT_FLOAT"}}}, {"name": "StatefulPartitionedCall/functional_1/conv2d_14/Conv2D_bn_offset", "op": "Const", "attr": {"value": {"tensor": {"dtype": "DT_FLOAT", "tensorShape": {"dim": [{"size": "512"}]}}}, "dtype": {"type": "DT_FLOAT"}}}, {"name": "StatefulPartitionedCall/functional_1/conv2d_15/Conv2D_weights", "op": "Const", "attr": {"value": {"tensor": {"dtype": "DT_FLOAT", "tensorShape": {"dim": [{"size": "1"}, {"size": "1"}, {"size": "512"}, {"size": "256"}]}}}, "dtype": {"type": "DT_FLOAT"}}}, {"name": "StatefulPartitionedCall/functional_1/conv2d_15/Conv2D_bn_offset", "op": "Const", "attr": {"value": {"tensor": {"dtype": "DT_FLOAT", "tensorShape": {"dim": [{"size": "256"}]}}}, "dtype": {"type": "DT_FLOAT"}}}, {"name": "StatefulPartitionedCall/functional_1/conv2d_18/Conv2D_weights", "op": "Const", "attr": {"value": {"tensor": {"dtype": "DT_FLOAT", "tensorShape": {"dim": [{"size": "1"}, {"size": "1"}, {"size": "256"}, {"size": "128"}]}}}, "dtype": {"type": "DT_FLOAT"}}}, {"name": "StatefulPartitionedCall/functional_1/conv2d_18/Conv2D_bn_offset", "op": "Const", "attr": {"value": {"tensor": {"dtype": "DT_FLOAT", "tensorShape": {"dim": [{"size": "128"}]}}}, "dtype": {"type": "DT_FLOAT"}}}, {"name": "StatefulPartitionedCall/functional_1/conv2d_16/Conv2D_weights", "op": "Const", "attr": {"value": {"tensor": {"dtype": "DT_FLOAT", "tensorShape": {"dim": [{"size": "3"}, {"size": "3"}, {"size": "256"}, {"size": "512"}]}}}, "dtype": {"type": "DT_FLOAT"}}}, {"name": "StatefulPartitionedCall/functional_1/conv2d_16/Conv2D_bn_offset", "op": "Const", "attr": {"value": {"tensor": {"dtype": "DT_FLOAT", "tensorShape": {"dim": [{"size": "512"}]}}}, "dtype": {"type": "DT_FLOAT"}}}, {"name": "StatefulPartitionedCall/functional_1/conv2d_19/Conv2D_weights", "op": "Const", "attr": {"value": {"tensor": {"dtype": "DT_FLOAT", "tensorShape": {"dim": [{"size": "3"}, {"size": "3"}, {"size": "384"}, {"size": "256"}]}}}, "dtype": {"type": "DT_FLOAT"}}}, {"name": "StatefulPartitionedCall/functional_1/conv2d_19/Conv2D_bn_offset", "op": "Const", "attr": {"value": {"tensor": {"dtype": "DT_FLOAT", "tensorShape": {"dim": [{"size": "256"}]}}}, "dtype": {"type": "DT_FLOAT"}}}, {"name": "StatefulPartitionedCall/functional_1/zero_padding2d/Pad", "op": "Pad", "input": ["input_1", "StatefulPartitionedCall/functional_1/zero_padding2d/Pad/paddings"], "attr": {"T": {"type": "DT_FLOAT"}, "Tpaddings": {"type": "DT_INT32"}}}, {"name": "StatefulPartitionedCall/functional_1/batch_normalization/FusedBatchNormV3", "op": "_FusedConv2D", "input": ["StatefulPartitionedCall/functional_1/zero_padding2d/Pad", "StatefulPartitionedCall/functional_1/conv2d/Conv2D_weights", "StatefulPartitionedCall/functional_1/conv2d/Conv2D_bn_offset"], "device": "/device:CPU:0", "attr": {"dilations": {"list": {"i": ["1", "1", "1", "1"]}}, "T": {"type": "DT_FLOAT"}, "data_format": {"s": "TkhXQw=="}, "strides": {"list": {"i": ["1", "2", "2", "1"]}}, "explicit_paddings": {"list": {}}, "use_cudnn_on_gpu": {"b": true}, "num_args": {"i": "1"}, "epsilon": {"f": 0.0}, "padding": {"s": "VkFMSUQ="}, "fused_ops": {"list": {"s": ["Qmlhc0FkZA=="]}}}}, {"name": "StatefulPartitionedCall/functional_1/tf_op_layer_LeakyRelu/LeakyRelu", "op": "LeakyRelu", "input": ["StatefulPartitionedCall/functional_1/batch_normalization/FusedBatchNormV3"], "attr": {"T": {"type": "DT_FLOAT"}, "alpha": {"f": 0.10000000149011612}, "_cloned": {"b": true}}}, {"name": "StatefulPartitionedCall/functional_1/zero_padding2d_1/Pad", "op": "Pad", "input": ["StatefulPartitionedCall/functional_1/tf_op_layer_LeakyRelu/LeakyRelu", "StatefulPartitionedCall/functional_1/zero_padding2d_1/Pad/paddings"], "attr": {"T": {"type": "DT_FLOAT"}, "Tpaddings": {"type": "DT_INT32"}}}, {"name": "StatefulPartitionedCall/functional_1/batch_normalization_1/FusedBatchNormV3", "op": "_FusedConv2D", "input": ["StatefulPartitionedCall/functional_1/zero_padding2d_1/Pad", "StatefulPartitionedCall/functional_1/conv2d_1/Conv2D_weights", "StatefulPartitionedCall/functional_1/conv2d_1/Conv2D_bn_offset"], "device": "/device:CPU:0", "attr": {"fused_ops": {"list": {"s": ["Qmlhc0FkZA=="]}}, "dilations": {"list": {"i": ["1", "1", "1", "1"]}}, "T": {"type": "DT_FLOAT"}, "data_format": {"s": "TkhXQw=="}, "strides": {"list": {"i": ["1", "2", "2", "1"]}}, "explicit_paddings": {"list": {}}, "use_cudnn_on_gpu": {"b": true}, "num_args": {"i": "1"}, "epsilon": {"f": 0.0}, "padding": {"s": "VkFMSUQ="}}}, {"name": "StatefulPartitionedCall/functional_1/tf_op_layer_LeakyRelu_1/LeakyRelu_1", "op": "LeakyRelu", "input": ["StatefulPartitionedCall/functional_1/batch_normalization_1/FusedBatchNormV3"], "attr": {"alpha": {"f": 0.10000000149011612}, "_cloned": {"b": true}, "T": {"type": "DT_FLOAT"}}}, {"name": "StatefulPartitionedCall/functional_1/batch_normalization_2/FusedBatchNormV3", "op": "_FusedConv2D", "input": ["StatefulPartitionedCall/functional_1/tf_op_layer_LeakyRelu_1/LeakyRelu_1", "StatefulPartitionedCall/functional_1/conv2d_2/Conv2D_weights", "StatefulPartitionedCall/functional_1/conv2d_2/Conv2D_bn_offset"], "device": "/device:CPU:0", "attr": {"data_format": {"s": "TkhXQw=="}, "strides": {"list": {"i": ["1", "1", "1", "1"]}}, "explicit_paddings": {"list": {}}, "use_cudnn_on_gpu": {"b": true}, "num_args": {"i": "1"}, "epsilon": {"f": 0.0}, "padding": {"s": "U0FNRQ=="}, "fused_ops": {"list": {"s": ["Qmlhc0FkZA=="]}}, "dilations": {"list": {"i": ["1", "1", "1", "1"]}}, "T": {"type": "DT_FLOAT"}}}, {"name": "StatefulPartitionedCall/functional_1/tf_op_layer_LeakyRelu_2/LeakyRelu_2", "op": "LeakyRelu", "input": ["StatefulPartitionedCall/functional_1/batch_normalization_2/FusedBatchNormV3"], "attr": {"T": {"type": "DT_FLOAT"}, "alpha": {"f": 0.10000000149011612}, "_cloned": {"b": true}}}, {"name": "StatefulPartitionedCall/functional_1/tf_op_layer_split/split", "op": "Split", "input": ["StatefulPartitionedCall/functional_1/tf_op_layer_split/split/split_dim", "StatefulPartitionedCall/functional_1/tf_op_layer_LeakyRelu_2/LeakyRelu_2"], "attr": {"num_split": {"i": "2"}, "_cloned": {"b": true}, "T": {"type": "DT_FLOAT"}}}, {"name": "StatefulPartitionedCall/functional_1/batch_normalization_3/FusedBatchNormV3", "op": "_FusedConv2D", "input": ["StatefulPartitionedCall/functional_1/tf_op_layer_split/split:1", "StatefulPartitionedCall/functional_1/conv2d_3/Conv2D_weights", "StatefulPartitionedCall/functional_1/conv2d_3/Conv2D_bn_offset"], "device": "/device:CPU:0", "attr": {"dilations": {"list": {"i": ["1", "1", "1", "1"]}}, "T": {"type": "DT_FLOAT"}, "strides": {"list": {"i": ["1", "1", "1", "1"]}}, "data_format": {"s": "TkhXQw=="}, "use_cudnn_on_gpu": {"b": true}, "explicit_paddings": {"list": {}}, "num_args": {"i": "1"}, "epsilon": {"f": 0.0}, "padding": {"s": "U0FNRQ=="}, "fused_ops": {"list": {"s": ["Qmlhc0FkZA=="]}}}}, {"name": "StatefulPartitionedCall/functional_1/tf_op_layer_LeakyRelu_3/LeakyRelu_3", "op": "LeakyRelu", "input": ["StatefulPartitionedCall/functional_1/batch_normalization_3/FusedBatchNormV3"], "attr": {"T": {"type": "DT_FLOAT"}, "alpha": {"f": 0.10000000149011612}, "_cloned": {"b": true}}}, {"name": "StatefulPartitionedCall/functional_1/batch_normalization_4/FusedBatchNormV3", "op": "_FusedConv2D", "input": ["StatefulPartitionedCall/functional_1/tf_op_layer_LeakyRelu_3/LeakyRelu_3", "StatefulPartitionedCall/functional_1/conv2d_4/Conv2D_weights", "StatefulPartitionedCall/functional_1/conv2d_4/Conv2D_bn_offset"], "device": "/device:CPU:0", "attr": {"num_args": {"i": "1"}, "epsilon": {"f": 0.0}, "padding": {"s": "U0FNRQ=="}, "fused_ops": {"list": {"s": ["Qmlhc0FkZA=="]}}, "dilations": {"list": {"i": ["1", "1", "1", "1"]}}, "T": {"type": "DT_FLOAT"}, "data_format": {"s": "TkhXQw=="}, "strides": {"list": {"i": ["1", "1", "1", "1"]}}, "explicit_paddings": {"list": {}}, "use_cudnn_on_gpu": {"b": true}}}, {"name": "StatefulPartitionedCall/functional_1/tf_op_layer_LeakyRelu_4/LeakyRelu_4", "op": "LeakyRelu", "input": ["StatefulPartitionedCall/functional_1/batch_normalization_4/FusedBatchNormV3"], "attr": {"_cloned": {"b": true}, "T": {"type": "DT_FLOAT"}, "alpha": {"f": 0.10000000149011612}}}, {"name": "StatefulPartitionedCall/functional_1/tf_op_layer_concat/concat", "op": "ConcatV2", "input": ["StatefulPartitionedCall/functional_1/tf_op_layer_LeakyRelu_4/LeakyRelu_4", "StatefulPartitionedCall/functional_1/tf_op_layer_LeakyRelu_3/LeakyRelu_3", "StatefulPartitionedCall/functional_1/tf_op_layer_concat/concat/axis"], "attr": {"_cloned": {"b": true}, "Tidx": {"type": "DT_INT32"}, "T": {"type": "DT_FLOAT"}, "N": {"i": "2"}}}, {"name": "StatefulPartitionedCall/functional_1/batch_normalization_5/FusedBatchNormV3", "op": "_FusedConv2D", "input": ["StatefulPartitionedCall/functional_1/tf_op_layer_concat/concat", "StatefulPartitionedCall/functional_1/conv2d_5/Conv2D_weights", "StatefulPartitionedCall/functional_1/conv2d_5/Conv2D_bn_offset"], "device": "/device:CPU:0", "attr": {"dilations": {"list": {"i": ["1", "1", "1", "1"]}}, "T": {"type": "DT_FLOAT"}, "strides": {"list": {"i": ["1", "1", "1", "1"]}}, "data_format": {"s": "TkhXQw=="}, "use_cudnn_on_gpu": {"b": true}, "explicit_paddings": {"list": {}}, "num_args": {"i": "1"}, "epsilon": {"f": 0.0}, "padding": {"s": "U0FNRQ=="}, "fused_ops": {"list": {"s": ["Qmlhc0FkZA=="]}}}}, {"name": "StatefulPartitionedCall/functional_1/tf_op_layer_LeakyRelu_5/LeakyRelu_5", "op": "LeakyRelu", "input": ["StatefulPartitionedCall/functional_1/batch_normalization_5/FusedBatchNormV3"], "attr": {"T": {"type": "DT_FLOAT"}, "alpha": {"f": 0.10000000149011612}, "_cloned": {"b": true}}}, {"name": "StatefulPartitionedCall/functional_1/tf_op_layer_concat_1/concat_1", "op": "ConcatV2", "input": ["StatefulPartitionedCall/functional_1/tf_op_layer_LeakyRelu_2/LeakyRelu_2", "StatefulPartitionedCall/functional_1/tf_op_layer_LeakyRelu_5/LeakyRelu_5", "StatefulPartitionedCall/functional_1/tf_op_layer_concat_1/concat_1/axis"], "attr": {"Tidx": {"type": "DT_INT32"}, "T": {"type": "DT_FLOAT"}, "N": {"i": "2"}, "_cloned": {"b": true}}}, {"name": "StatefulPartitionedCall/functional_1/max_pooling2d/MaxPool", "op": "MaxPool", "input": ["StatefulPartitionedCall/functional_1/tf_op_layer_concat_1/concat_1"], "attr": {"data_format": {"s": "TkhXQw=="}, "strides": {"list": {"i": ["1", "2", "2", "1"]}}, "ksize": {"list": {"i": ["1", "2", "2", "1"]}}, "padding": {"s": "U0FNRQ=="}, "T": {"type": "DT_FLOAT"}}}, {"name": "StatefulPartitionedCall/functional_1/batch_normalization_6/FusedBatchNormV3", "op": "_FusedConv2D", "input": ["StatefulPartitionedCall/functional_1/max_pooling2d/MaxPool", "StatefulPartitionedCall/functional_1/conv2d_6/Conv2D_weights", "StatefulPartitionedCall/functional_1/conv2d_6/Conv2D_bn_offset"], "device": "/device:CPU:0", "attr": {"epsilon": {"f": 0.0}, "padding": {"s": "U0FNRQ=="}, "fused_ops": {"list": {"s": ["Qmlhc0FkZA=="]}}, "dilations": {"list": {"i": ["1", "1", "1", "1"]}}, "T": {"type": "DT_FLOAT"}, "data_format": {"s": "TkhXQw=="}, "strides": {"list": {"i": ["1", "1", "1", "1"]}}, "explicit_paddings": {"list": {}}, "use_cudnn_on_gpu": {"b": true}, "num_args": {"i": "1"}}}, {"name": "StatefulPartitionedCall/functional_1/tf_op_layer_LeakyRelu_6/LeakyRelu_6", "op": "LeakyRelu", "input": ["StatefulPartitionedCall/functional_1/batch_normalization_6/FusedBatchNormV3"], "attr": {"alpha": {"f": 0.10000000149011612}, "_cloned": {"b": true}, "T": {"type": "DT_FLOAT"}}}, {"name": "StatefulPartitionedCall/functional_1/tf_op_layer_split_1/split_1", "op": "Split", "input": ["StatefulPartitionedCall/functional_1/tf_op_layer_split_1/split_1/split_dim", "StatefulPartitionedCall/functional_1/tf_op_layer_LeakyRelu_6/LeakyRelu_6"], "attr": {"num_split": {"i": "2"}, "_cloned": {"b": true}, "T": {"type": "DT_FLOAT"}}}, {"name": "StatefulPartitionedCall/functional_1/batch_normalization_7/FusedBatchNormV3", "op": "_FusedConv2D", "input": ["StatefulPartitionedCall/functional_1/tf_op_layer_split_1/split_1:1", "StatefulPartitionedCall/functional_1/conv2d_7/Conv2D_weights", "StatefulPartitionedCall/functional_1/conv2d_7/Conv2D_bn_offset"], "device": "/device:CPU:0", "attr": {"strides": {"list": {"i": ["1", "1", "1", "1"]}}, "data_format": {"s": "TkhXQw=="}, "explicit_paddings": {"list": {}}, "use_cudnn_on_gpu": {"b": true}, "num_args": {"i": "1"}, "epsilon": {"f": 0.0}, "padding": {"s": "U0FNRQ=="}, "fused_ops": {"list": {"s": ["Qmlhc0FkZA=="]}}, "dilations": {"list": {"i": ["1", "1", "1", "1"]}}, "T": {"type": "DT_FLOAT"}}}, {"name": "StatefulPartitionedCall/functional_1/tf_op_layer_LeakyRelu_7/LeakyRelu_7", "op": "LeakyRelu", "input": ["StatefulPartitionedCall/functional_1/batch_normalization_7/FusedBatchNormV3"], "attr": {"_cloned": {"b": true}, "T": {"type": "DT_FLOAT"}, "alpha": {"f": 0.10000000149011612}}}, {"name": "StatefulPartitionedCall/functional_1/batch_normalization_8/FusedBatchNormV3", "op": "_FusedConv2D", "input": ["StatefulPartitionedCall/functional_1/tf_op_layer_LeakyRelu_7/LeakyRelu_7", "StatefulPartitionedCall/functional_1/conv2d_8/Conv2D_weights", "StatefulPartitionedCall/functional_1/conv2d_8/Conv2D_bn_offset"], "device": "/device:CPU:0", "attr": {"dilations": {"list": {"i": ["1", "1", "1", "1"]}}, "T": {"type": "DT_FLOAT"}, "strides": {"list": {"i": ["1", "1", "1", "1"]}}, "data_format": {"s": "TkhXQw=="}, "explicit_paddings": {"list": {}}, "use_cudnn_on_gpu": {"b": true}, "num_args": {"i": "1"}, "epsilon": {"f": 0.0}, "padding": {"s": "U0FNRQ=="}, "fused_ops": {"list": {"s": ["Qmlhc0FkZA=="]}}}}, {"name": "StatefulPartitionedCall/functional_1/tf_op_layer_LeakyRelu_8/LeakyRelu_8", "op": "LeakyRelu", "input": ["StatefulPartitionedCall/functional_1/batch_normalization_8/FusedBatchNormV3"], "attr": {"_cloned": {"b": true}, "T": {"type": "DT_FLOAT"}, "alpha": {"f": 0.10000000149011612}}}, {"name": "StatefulPartitionedCall/functional_1/tf_op_layer_concat_2/concat_2", "op": "ConcatV2", "input": ["StatefulPartitionedCall/functional_1/tf_op_layer_LeakyRelu_8/LeakyRelu_8", "StatefulPartitionedCall/functional_1/tf_op_layer_LeakyRelu_7/LeakyRelu_7", "StatefulPartitionedCall/functional_1/tf_op_layer_concat_2/concat_2/axis"], "attr": {"T": {"type": "DT_FLOAT"}, "N": {"i": "2"}, "_cloned": {"b": true}, "Tidx": {"type": "DT_INT32"}}}, {"name": "StatefulPartitionedCall/functional_1/batch_normalization_9/FusedBatchNormV3", "op": "_FusedConv2D", "input": ["StatefulPartitionedCall/functional_1/tf_op_layer_concat_2/concat_2", "StatefulPartitionedCall/functional_1/conv2d_9/Conv2D_weights", "StatefulPartitionedCall/functional_1/conv2d_9/Conv2D_bn_offset"], "device": "/device:CPU:0", "attr": {"data_format": {"s": "TkhXQw=="}, "strides": {"list": {"i": ["1", "1", "1", "1"]}}, "explicit_paddings": {"list": {}}, "use_cudnn_on_gpu": {"b": true}, "num_args": {"i": "1"}, "epsilon": {"f": 0.0}, "padding": {"s": "U0FNRQ=="}, "fused_ops": {"list": {"s": ["Qmlhc0FkZA=="]}}, "dilations": {"list": {"i": ["1", "1", "1", "1"]}}, "T": {"type": "DT_FLOAT"}}}, {"name": "StatefulPartitionedCall/functional_1/tf_op_layer_LeakyRelu_9/LeakyRelu_9", "op": "LeakyRelu", "input": ["StatefulPartitionedCall/functional_1/batch_normalization_9/FusedBatchNormV3"], "attr": {"alpha": {"f": 0.10000000149011612}, "_cloned": {"b": true}, "T": {"type": "DT_FLOAT"}}}, {"name": "StatefulPartitionedCall/functional_1/tf_op_layer_concat_3/concat_3", "op": "ConcatV2", "input": ["StatefulPartitionedCall/functional_1/tf_op_layer_LeakyRelu_6/LeakyRelu_6", "StatefulPartitionedCall/functional_1/tf_op_layer_LeakyRelu_9/LeakyRelu_9", "StatefulPartitionedCall/functional_1/tf_op_layer_concat_3/concat_3/axis"], "attr": {"T": {"type": "DT_FLOAT"}, "N": {"i": "2"}, "_cloned": {"b": true}, "Tidx": {"type": "DT_INT32"}}}, {"name": "StatefulPartitionedCall/functional_1/max_pooling2d_1/MaxPool", "op": "MaxPool", "input": ["StatefulPartitionedCall/functional_1/tf_op_layer_concat_3/concat_3"], "attr": {"ksize": {"list": {"i": ["1", "2", "2", "1"]}}, "padding": {"s": "U0FNRQ=="}, "T": {"type": "DT_FLOAT"}, "strides": {"list": {"i": ["1", "2", "2", "1"]}}, "data_format": {"s": "TkhXQw=="}}}, {"name": "StatefulPartitionedCall/functional_1/batch_normalization_10/FusedBatchNormV3", "op": "_FusedConv2D", "input": ["StatefulPartitionedCall/functional_1/max_pooling2d_1/MaxPool", "StatefulPartitionedCall/functional_1/conv2d_10/Conv2D_weights", "StatefulPartitionedCall/functional_1/conv2d_10/Conv2D_bn_offset"], "device": "/device:CPU:0", "attr": {"epsilon": {"f": 0.0}, "padding": {"s": "U0FNRQ=="}, "fused_ops": {"list": {"s": ["Qmlhc0FkZA=="]}}, "dilations": {"list": {"i": ["1", "1", "1", "1"]}}, "T": {"type": "DT_FLOAT"}, "data_format": {"s": "TkhXQw=="}, "strides": {"list": {"i": ["1", "1", "1", "1"]}}, "use_cudnn_on_gpu": {"b": true}, "explicit_paddings": {"list": {}}, "num_args": {"i": "1"}}}, {"name": "StatefulPartitionedCall/functional_1/tf_op_layer_LeakyRelu_10/LeakyRelu_10", "op": "LeakyRelu", "input": ["StatefulPartitionedCall/functional_1/batch_normalization_10/FusedBatchNormV3"], "attr": {"_cloned": {"b": true}, "T": {"type": "DT_FLOAT"}, "alpha": {"f": 0.10000000149011612}}}, {"name": "StatefulPartitionedCall/functional_1/tf_op_layer_split_2/split_2", "op": "Split", "input": ["StatefulPartitionedCall/functional_1/tf_op_layer_split_2/split_2/split_dim", "StatefulPartitionedCall/functional_1/tf_op_layer_LeakyRelu_10/LeakyRelu_10"], "attr": {"num_split": {"i": "2"}, "_cloned": {"b": true}, "T": {"type": "DT_FLOAT"}}}, {"name": "StatefulPartitionedCall/functional_1/batch_normalization_11/FusedBatchNormV3", "op": "_FusedConv2D", "input": ["StatefulPartitionedCall/functional_1/tf_op_layer_split_2/split_2:1", "StatefulPartitionedCall/functional_1/conv2d_11/Conv2D_weights", "StatefulPartitionedCall/functional_1/conv2d_11/Conv2D_bn_offset"], "device": "/device:CPU:0", "attr": {"dilations": {"list": {"i": ["1", "1", "1", "1"]}}, "T": {"type": "DT_FLOAT"}, "strides": {"list": {"i": ["1", "1", "1", "1"]}}, "data_format": {"s": "TkhXQw=="}, "explicit_paddings": {"list": {}}, "use_cudnn_on_gpu": {"b": true}, "num_args": {"i": "1"}, "epsilon": {"f": 0.0}, "padding": {"s": "U0FNRQ=="}, "fused_ops": {"list": {"s": ["Qmlhc0FkZA=="]}}}}, {"name": "StatefulPartitionedCall/functional_1/tf_op_layer_LeakyRelu_11/LeakyRelu_11", "op": "LeakyRelu", "input": ["StatefulPartitionedCall/functional_1/batch_normalization_11/FusedBatchNormV3"], "attr": {"_cloned": {"b": true}, "T": {"type": "DT_FLOAT"}, "alpha": {"f": 0.10000000149011612}}}, {"name": "StatefulPartitionedCall/functional_1/batch_normalization_12/FusedBatchNormV3", "op": "_FusedConv2D", "input": ["StatefulPartitionedCall/functional_1/tf_op_layer_LeakyRelu_11/LeakyRelu_11", "StatefulPartitionedCall/functional_1/conv2d_12/Conv2D_weights", "StatefulPartitionedCall/functional_1/conv2d_12/Conv2D_bn_offset"], "device": "/device:CPU:0", "attr": {"data_format": {"s": "TkhXQw=="}, "strides": {"list": {"i": ["1", "1", "1", "1"]}}, "use_cudnn_on_gpu": {"b": true}, "explicit_paddings": {"list": {}}, "num_args": {"i": "1"}, "epsilon": {"f": 0.0}, "padding": {"s": "U0FNRQ=="}, "fused_ops": {"list": {"s": ["Qmlhc0FkZA=="]}}, "dilations": {"list": {"i": ["1", "1", "1", "1"]}}, "T": {"type": "DT_FLOAT"}}}, {"name": "StatefulPartitionedCall/functional_1/tf_op_layer_LeakyRelu_12/LeakyRelu_12", "op": "LeakyRelu", "input": ["StatefulPartitionedCall/functional_1/batch_normalization_12/FusedBatchNormV3"], "attr": {"T": {"type": "DT_FLOAT"}, "alpha": {"f": 0.10000000149011612}, "_cloned": {"b": true}}}, {"name": "StatefulPartitionedCall/functional_1/tf_op_layer_concat_4/concat_4", "op": "ConcatV2", "input": ["StatefulPartitionedCall/functional_1/tf_op_layer_LeakyRelu_12/LeakyRelu_12", "StatefulPartitionedCall/functional_1/tf_op_layer_LeakyRelu_11/LeakyRelu_11", "StatefulPartitionedCall/functional_1/tf_op_layer_concat_4/concat_4/axis"], "attr": {"N": {"i": "2"}, "_cloned": {"b": true}, "Tidx": {"type": "DT_INT32"}, "T": {"type": "DT_FLOAT"}}}, {"name": "StatefulPartitionedCall/functional_1/batch_normalization_13/FusedBatchNormV3", "op": "_FusedConv2D", "input": ["StatefulPartitionedCall/functional_1/tf_op_layer_concat_4/concat_4", "StatefulPartitionedCall/functional_1/conv2d_13/Conv2D_weights", "StatefulPartitionedCall/functional_1/conv2d_13/Conv2D_bn_offset"], "device": "/device:CPU:0", "attr": {"dilations": {"list": {"i": ["1", "1", "1", "1"]}}, "T": {"type": "DT_FLOAT"}, "data_format": {"s": "TkhXQw=="}, "strides": {"list": {"i": ["1", "1", "1", "1"]}}, "explicit_paddings": {"list": {}}, "use_cudnn_on_gpu": {"b": true}, "num_args": {"i": "1"}, "epsilon": {"f": 0.0}, "padding": {"s": "U0FNRQ=="}, "fused_ops": {"list": {"s": ["Qmlhc0FkZA=="]}}}}, {"name": "StatefulPartitionedCall/functional_1/tf_op_layer_LeakyRelu_13/LeakyRelu_13", "op": "LeakyRelu", "input": ["StatefulPartitionedCall/functional_1/batch_normalization_13/FusedBatchNormV3"], "attr": {"_cloned": {"b": true}, "T": {"type": "DT_FLOAT"}, "alpha": {"f": 0.10000000149011612}}}, {"name": "StatefulPartitionedCall/functional_1/tf_op_layer_concat_5/concat_5", "op": "ConcatV2", "input": ["StatefulPartitionedCall/functional_1/tf_op_layer_LeakyRelu_10/LeakyRelu_10", "StatefulPartitionedCall/functional_1/tf_op_layer_LeakyRelu_13/LeakyRelu_13", "StatefulPartitionedCall/functional_1/tf_op_layer_concat_5/concat_5/axis"], "attr": {"N": {"i": "2"}, "_cloned": {"b": true}, "Tidx": {"type": "DT_INT32"}, "T": {"type": "DT_FLOAT"}}}, {"name": "StatefulPartitionedCall/functional_1/max_pooling2d_2/MaxPool", "op": "MaxPool", "input": ["StatefulPartitionedCall/functional_1/tf_op_layer_concat_5/concat_5"], "attr": {"ksize": {"list": {"i": ["1", "2", "2", "1"]}}, "padding": {"s": "U0FNRQ=="}, "T": {"type": "DT_FLOAT"}, "data_format": {"s": "TkhXQw=="}, "strides": {"list": {"i": ["1", "2", "2", "1"]}}}}, {"name": "StatefulPartitionedCall/functional_1/batch_normalization_14/FusedBatchNormV3", "op": "_FusedConv2D", "input": ["StatefulPartitionedCall/functional_1/max_pooling2d_2/MaxPool", "StatefulPartitionedCall/functional_1/conv2d_14/Conv2D_weights", "StatefulPartitionedCall/functional_1/conv2d_14/Conv2D_bn_offset"], "device": "/device:CPU:0", "attr": {"strides": {"list": {"i": ["1", "1", "1", "1"]}}, "data_format": {"s": "TkhXQw=="}, "use_cudnn_on_gpu": {"b": true}, "explicit_paddings": {"list": {}}, "num_args": {"i": "1"}, "epsilon": {"f": 0.0}, "padding": {"s": "U0FNRQ=="}, "fused_ops": {"list": {"s": ["Qmlhc0FkZA=="]}}, "dilations": {"list": {"i": ["1", "1", "1", "1"]}}, "T": {"type": "DT_FLOAT"}}}, {"name": "StatefulPartitionedCall/functional_1/tf_op_layer_LeakyRelu_14/LeakyRelu_14", "op": "LeakyRelu", "input": ["StatefulPartitionedCall/functional_1/batch_normalization_14/FusedBatchNormV3"], "attr": {"T": {"type": "DT_FLOAT"}, "alpha": {"f": 0.10000000149011612}, "_cloned": {"b": true}}}, {"name": "StatefulPartitionedCall/functional_1/batch_normalization_15/FusedBatchNormV3", "op": "_FusedConv2D", "input": ["StatefulPartitionedCall/functional_1/tf_op_layer_LeakyRelu_14/LeakyRelu_14", "StatefulPartitionedCall/functional_1/conv2d_15/Conv2D_weights", "StatefulPartitionedCall/functional_1/conv2d_15/Conv2D_bn_offset"], "device": "/device:CPU:0", "attr": {"strides": {"list": {"i": ["1", "1", "1", "1"]}}, "data_format": {"s": "TkhXQw=="}, "explicit_paddings": {"list": {}}, "use_cudnn_on_gpu": {"b": true}, "num_args": {"i": "1"}, "epsilon": {"f": 0.0}, "padding": {"s": "U0FNRQ=="}, "fused_ops": {"list": {"s": ["Qmlhc0FkZA=="]}}, "dilations": {"list": {"i": ["1", "1", "1", "1"]}}, "T": {"type": "DT_FLOAT"}}}, {"name": "StatefulPartitionedCall/functional_1/tf_op_layer_LeakyRelu_15/LeakyRelu_15", "op": "LeakyRelu", "input": ["StatefulPartitionedCall/functional_1/batch_normalization_15/FusedBatchNormV3"], "attr": {"_cloned": {"b": true}, "T": {"type": "DT_FLOAT"}, "alpha": {"f": 0.10000000149011612}}}, {"name": "StatefulPartitionedCall/functional_1/batch_normalization_17/FusedBatchNormV3", "op": "_FusedConv2D", "input": ["StatefulPartitionedCall/functional_1/tf_op_layer_LeakyRelu_15/LeakyRelu_15", "StatefulPartitionedCall/functional_1/conv2d_18/Conv2D_weights", "StatefulPartitionedCall/functional_1/conv2d_18/Conv2D_bn_offset"], "device": "/device:CPU:0", "attr": {"data_format": {"s": "TkhXQw=="}, "strides": {"list": {"i": ["1", "1", "1", "1"]}}, "explicit_paddings": {"list": {}}, "use_cudnn_on_gpu": {"b": true}, "num_args": {"i": "1"}, "epsilon": {"f": 0.0}, "padding": {"s": "U0FNRQ=="}, "fused_ops": {"list": {"s": ["Qmlhc0FkZA=="]}}, "dilations": {"list": {"i": ["1", "1", "1", "1"]}}, "T": {"type": "DT_FLOAT"}}}, {"name": "StatefulPartitionedCall/functional_1/batch_normalization_16/FusedBatchNormV3", "op": "_FusedConv2D", "input": ["StatefulPartitionedCall/functional_1/tf_op_layer_LeakyRelu_15/LeakyRelu_15", "StatefulPartitionedCall/functional_1/conv2d_16/Conv2D_weights", "StatefulPartitionedCall/functional_1/conv2d_16/Conv2D_bn_offset"], "device": "/device:CPU:0", "attr": {"num_args": {"i": "1"}, "epsilon": {"f": 0.0}, "padding": {"s": "U0FNRQ=="}, "fused_ops": {"list": {"s": ["Qmlhc0FkZA=="]}}, "dilations": {"list": {"i": ["1", "1", "1", "1"]}}, "T": {"type": "DT_FLOAT"}, "strides": {"list": {"i": ["1", "1", "1", "1"]}}, "data_format": {"s": "TkhXQw=="}, "explicit_paddings": {"list": {}}, "use_cudnn_on_gpu": {"b": true}}}, {"name": "StatefulPartitionedCall/functional_1/tf_op_layer_LeakyRelu_17/LeakyRelu_17", "op": "LeakyRelu", "input": ["StatefulPartitionedCall/functional_1/batch_normalization_17/FusedBatchNormV3"], "attr": {"T": {"type": "DT_FLOAT"}, "alpha": {"f": 0.10000000149011612}, "_cloned": {"b": true}}}, {"name": "StatefulPartitionedCall/functional_1/tf_op_layer_LeakyRelu_16/LeakyRelu_16", "op": "LeakyRelu", "input": ["StatefulPartitionedCall/functional_1/batch_normalization_16/FusedBatchNormV3"], "attr": {"T": {"type": "DT_FLOAT"}, "alpha": {"f": 0.10000000149011612}, "_cloned": {"b": true}}}, {"name": "StatefulPartitionedCall/functional_1/tf_op_layer_ResizeBilinear/ResizeBilinear", "op": "ResizeBilinear", "input": ["StatefulPartitionedCall/functional_1/tf_op_layer_LeakyRelu_17/LeakyRelu_17", "StatefulPartitionedCall/functional_1/tf_op_layer_ResizeBilinear/ResizeBilinear/size"], "attr": {"align_corners": {"b": false}, "half_pixel_centers": {"b": true}, "T": {"type": "DT_FLOAT"}, "_cloned": {"b": true}}}, {"name": "StatefulPartitionedCall/functional_1/conv2d_17/BiasAdd", "op": "_FusedConv2D", "input": ["StatefulPartitionedCall/functional_1/tf_op_layer_LeakyRelu_16/LeakyRelu_16", "unknown_94", "unknown_95"], "device": "/device:CPU:0", "attr": {"dilations": {"list": {"i": ["1", "1", "1", "1"]}}, "T": {"type": "DT_FLOAT"}, "data_format": {"s": "TkhXQw=="}, "strides": {"list": {"i": ["1", "1", "1", "1"]}}, "explicit_paddings": {"list": {}}, "use_cudnn_on_gpu": {"b": true}, "num_args": {"i": "1"}, "epsilon": {"f": 0.0}, "padding": {"s": "U0FNRQ=="}, "fused_ops": {"list": {"s": ["Qmlhc0FkZA=="]}}}}, {"name": "StatefulPartitionedCall/functional_1/tf_op_layer_concat_6/concat_6", "op": "ConcatV2", "input": ["StatefulPartitionedCall/functional_1/tf_op_layer_ResizeBilinear/ResizeBilinear", "StatefulPartitionedCall/functional_1/tf_op_layer_LeakyRelu_13/LeakyRelu_13", "StatefulPartitionedCall/functional_1/tf_op_layer_concat_6/concat_6/axis"], "attr": {"N": {"i": "2"}, "_cloned": {"b": true}, "Tidx": {"type": "DT_INT32"}, "T": {"type": "DT_FLOAT"}}}, {"name": "StatefulPartitionedCall/functional_1/tf_op_layer_Shape_1/Shape_1", "op": "Shape", "input": ["StatefulPartitionedCall/functional_1/conv2d_17/BiasAdd"], "attr": {"out_type": {"type": "DT_INT32"}, "_cloned": {"b": true}, "T": {"type": "DT_FLOAT"}}}, {"name": "StatefulPartitionedCall/functional_1/batch_normalization_18/FusedBatchNormV3", "op": "_FusedConv2D", "input": ["StatefulPartitionedCall/functional_1/tf_op_layer_concat_6/concat_6", "StatefulPartitionedCall/functional_1/conv2d_19/Conv2D_weights", "StatefulPartitionedCall/functional_1/conv2d_19/Conv2D_bn_offset"], "device": "/device:CPU:0", "attr": {"epsilon": {"f": 0.0}, "padding": {"s": "U0FNRQ=="}, "fused_ops": {"list": {"s": ["Qmlhc0FkZA=="]}}, "dilations": {"list": {"i": ["1", "1", "1", "1"]}}, "T": {"type": "DT_FLOAT"}, "data_format": {"s": "TkhXQw=="}, "strides": {"list": {"i": ["1", "1", "1", "1"]}}, "use_cudnn_on_gpu": {"b": true}, "explicit_paddings": {"list": {}}, "num_args": {"i": "1"}}}, {"name": "StatefulPartitionedCall/functional_1/tf_op_layer_strided_slice_1/strided_slice_1", "op": "StridedSlice", "input": ["StatefulPartitionedCall/functional_1/tf_op_layer_Shape_1/Shape_1", "StatefulPartitionedCall/functional_1/tf_op_layer_strided_slice_1/strided_slice_1/begin", "StatefulPartitionedCall/functional_1/tf_op_layer_strided_slice_1/strided_slice_1/end", "StatefulPartitionedCall/functional_1/tf_op_layer_strided_slice_1/strided_slice_1/strides"], "attr": {"shrink_axis_mask": {"i": "1"}, "begin_mask": {"i": "0"}, "ellipsis_mask": {"i": "0"}, "new_axis_mask": {"i": "0"}, "end_mask": {"i": "0"}, "_cloned": {"b": true}, "Index": {"type": "DT_INT32"}, "T": {"type": "DT_INT32"}}}, {"name": "StatefulPartitionedCall/functional_1/tf_op_layer_LeakyRelu_18/LeakyRelu_18", "op": "LeakyRelu", "input": ["StatefulPartitionedCall/functional_1/batch_normalization_18/FusedBatchNormV3"], "attr": {"alpha": {"f": 0.10000000149011612}, "_cloned": {"b": true}, "T": {"type": "DT_FLOAT"}}}, {"name": "StatefulPartitionedCall/functional_1/tf_op_layer_Tile_1/multiples/Tile_1/multiples", "op": "Pack", "input": ["StatefulPartitionedCall/functional_1/tf_op_layer_strided_slice_1/strided_slice_1", "StatefulPartitionedCall/functional_1/tf_op_layer_Tile_1/multiples/Tile_1/multiples/1", "StatefulPartitionedCall/functional_1/tf_op_layer_Tile_1/multiples/Tile_1/multiples/2", "StatefulPartitionedCall/functional_1/tf_op_layer_Tile_1/multiples/Tile_1/multiples/3", "StatefulPartitionedCall/functional_1/tf_op_layer_Tile_1/multiples/Tile_1/multiples/4"], "attr": {"T": {"type": "DT_INT32"}, "axis": {"i": "0"}, "N": {"i": "5"}, "_cloned": {"b": true}}}, {"name": "StatefulPartitionedCall/functional_1/tf_op_layer_Reshape_5/shape/Reshape_5/shape", "op": "Pack", "input": ["StatefulPartitionedCall/functional_1/tf_op_layer_strided_slice_1/strided_slice_1", "StatefulPartitionedCall/functional_1/tf_op_layer_Reshape_5/shape/Reshape_5/shape/1", "StatefulPartitionedCall/functional_1/tf_op_layer_Reshape_5/shape/Reshape_5/shape/2"], "attr": {"_cloned": {"b": true}, "T": {"type": "DT_INT32"}, "axis": {"i": "0"}, "N": {"i": "3"}}}, {"name": "StatefulPartitionedCall/functional_1/tf_op_layer_Reshape_3/shape/Reshape_3/shape", "op": "Pack", "input": ["StatefulPartitionedCall/functional_1/tf_op_layer_strided_slice_1/strided_slice_1", "StatefulPartitionedCall/functional_1/tf_op_layer_Reshape_3/shape/Reshape_3/shape/1", "StatefulPartitionedCall/functional_1/tf_op_layer_Reshape_3/shape/Reshape_3/shape/2", "StatefulPartitionedCall/functional_1/tf_op_layer_Reshape_3/shape/Reshape_3/shape/3", "StatefulPartitionedCall/functional_1/tf_op_layer_Reshape_3/shape/Reshape_3/shape/4"], "attr": {"axis": {"i": "0"}, "N": {"i": "5"}, "_cloned": {"b": true}, "T": {"type": "DT_INT32"}}}, {"name": "StatefulPartitionedCall/functional_1/tf_op_layer_Reshape_4/shape/Reshape_4/shape", "op": "Pack", "input": ["StatefulPartitionedCall/functional_1/tf_op_layer_strided_slice_1/strided_slice_1", "StatefulPartitionedCall/functional_1/tf_op_layer_Reshape_4/shape/Reshape_4/shape/1", "StatefulPartitionedCall/functional_1/tf_op_layer_Reshape_4/shape/Reshape_4/shape/2"], "attr": {"_cloned": {"b": true}, "T": {"type": "DT_INT32"}, "axis": {"i": "0"}, "N": {"i": "3"}}}, {"name": "StatefulPartitionedCall/functional_1/conv2d_20/BiasAdd", "op": "_FusedConv2D", "input": ["StatefulPartitionedCall/functional_1/tf_op_layer_LeakyRelu_18/LeakyRelu_18", "unknown_96", "unknown_97"], "device": "/device:CPU:0", "attr": {"data_format": {"s": "TkhXQw=="}, "strides": {"list": {"i": ["1", "1", "1", "1"]}}, "explicit_paddings": {"list": {}}, "use_cudnn_on_gpu": {"b": true}, "num_args": {"i": "1"}, "epsilon": {"f": 0.0}, "padding": {"s": "U0FNRQ=="}, "fused_ops": {"list": {"s": ["Qmlhc0FkZA=="]}}, "dilations": {"list": {"i": ["1", "1", "1", "1"]}}, "T": {"type": "DT_FLOAT"}}}, {"name": "StatefulPartitionedCall/functional_1/tf_op_layer_Tile_1/Tile_1", "op": "Tile", "input": ["StatefulPartitionedCall/functional_1/tf_op_layer_Tile_1/Tile_1/input", "StatefulPartitionedCall/functional_1/tf_op_layer_Tile_1/multiples/Tile_1/multiples"], "attr": {"Tmultiples": {"type": "DT_INT32"}, "T": {"type": "DT_INT32"}, "_cloned": {"b": true}}}, {"name": "StatefulPartitionedCall/functional_1/tf_op_layer_Reshape_3/Reshape_3", "op": "Reshape", "input": ["StatefulPartitionedCall/functional_1/conv2d_17/BiasAdd", "StatefulPartitionedCall/functional_1/tf_op_layer_Reshape_3/shape/Reshape_3/shape"], "attr": {"T": {"type": "DT_FLOAT"}, "Tshape": {"type": "DT_INT32"}, "_cloned": {"b": true}}}, {"name": "StatefulPartitionedCall/functional_1/tf_op_layer_Shape/Shape", "op": "Shape", "input": ["StatefulPartitionedCall/functional_1/conv2d_20/BiasAdd"], "attr": {"out_type": {"type": "DT_INT32"}, "_cloned": {"b": true}, "T": {"type": "DT_FLOAT"}}}, {"name": "StatefulPartitionedCall/functional_1/tf_op_layer_Cast_1/Cast_1", "op": "Cast", "input": ["StatefulPartitionedCall/functional_1/tf_op_layer_Tile_1/Tile_1"], "attr": {"DstT": {"type": "DT_FLOAT"}, "_cloned": {"b": true}, "SrcT": {"type": "DT_INT32"}, "Truncate": {"b": false}}}, {"name": "StatefulPartitionedCall/functional_1/tf_op_layer_split_4/split_4", "op": "SplitV", "input": ["StatefulPartitionedCall/functional_1/tf_op_layer_Reshape_3/Reshape_3", "StatefulPartitionedCall/functional_1/tf_op_layer_split_4/split_4/size_splits", "StatefulPartitionedCall/functional_1/tf_op_layer_split_4/split_4/split_dim"], "attr": {"T": {"type": "DT_FLOAT"}, "num_split": {"i": "4"}, "Tlen": {"type": "DT_INT32"}, "_cloned": {"b": true}}}, {"name": "StatefulPartitionedCall/functional_1/tf_op_layer_strided_slice/strided_slice", "op": "StridedSlice", "input": ["StatefulPartitionedCall/functional_1/tf_op_layer_Shape/Shape", "StatefulPartitionedCall/functional_1/tf_op_layer_strided_slice/strided_slice/begin", "StatefulPartitionedCall/functional_1/tf_op_layer_strided_slice/strided_slice/end", "StatefulPartitionedCall/functional_1/tf_op_layer_strided_slice/strided_slice/strides"], "attr": {"shrink_axis_mask": {"i": "1"}, "ellipsis_mask": {"i": "0"}, "begin_mask": {"i": "0"}, "new_axis_mask": {"i": "0"}, "end_mask": {"i": "0"}, "_cloned": {"b": true}, "Index": {"type": "DT_INT32"}, "T": {"type": "DT_INT32"}}}, {"name": "StatefulPartitionedCall/functional_1/tf_op_layer_Sigmoid_3/Sigmoid_3", "op": "Sigmoid", "input": ["StatefulPartitionedCall/functional_1/tf_op_layer_split_4/split_4"], "attr": {"T": {"type": "DT_FLOAT"}, "_cloned": {"b": true}}}, {"name": "StatefulPartitionedCall/functional_1/tf_op_layer_Exp_1/Exp_1", "op": "Exp", "input": ["StatefulPartitionedCall/functional_1/tf_op_layer_split_4/split_4:1"], "attr": {"_cloned": {"b": true}, "T": {"type": "DT_FLOAT"}}}, {"name": "StatefulPartitionedCall/functional_1/tf_op_layer_Sigmoid_4/Sigmoid_4", "op": "Sigmoid", "input": ["StatefulPartitionedCall/functional_1/tf_op_layer_split_4/split_4:2"], "attr": {"T": {"type": "DT_FLOAT"}, "_cloned": {"b": true}}}, {"name": "StatefulPartitionedCall/functional_1/tf_op_layer_Sigmoid_5/Sigmoid_5", "op": "Sigmoid", "input": ["StatefulPartitionedCall/functional_1/tf_op_layer_split_4/split_4:3"], "attr": {"_cloned": {"b": true}, "T": {"type": "DT_FLOAT"}}}, {"name": "StatefulPartitionedCall/functional_1/tf_op_layer_Tile/multiples/Tile/multiples", "op": "Pack", "input": ["StatefulPartitionedCall/functional_1/tf_op_layer_strided_slice/strided_slice", "StatefulPartitionedCall/functional_1/tf_op_layer_Tile/multiples/Tile/multiples/1", "StatefulPartitionedCall/functional_1/tf_op_layer_Tile/multiples/Tile/multiples/2", "StatefulPartitionedCall/functional_1/tf_op_layer_Tile/multiples/Tile/multiples/3", "StatefulPartitionedCall/functional_1/tf_op_layer_Tile/multiples/Tile/multiples/4"], "attr": {"_cloned": {"b": true}, "T": {"type": "DT_INT32"}, "axis": {"i": "0"}, "N": {"i": "5"}}}, {"name": "StatefulPartitionedCall/functional_1/tf_op_layer_Reshape_2/shape/Reshape_2/shape", "op": "Pack", "input": ["StatefulPartitionedCall/functional_1/tf_op_layer_strided_slice/strided_slice", "StatefulPartitionedCall/functional_1/tf_op_layer_Reshape_2/shape/Reshape_2/shape/1", "StatefulPartitionedCall/functional_1/tf_op_layer_Reshape_2/shape/Reshape_2/shape/2"], "attr": {"axis": {"i": "0"}, "N": {"i": "3"}, "_cloned": {"b": true}, "T": {"type": "DT_INT32"}}}, {"name": "StatefulPartitionedCall/functional_1/tf_op_layer_Reshape/shape/Reshape/shape", "op": "Pack", "input": ["StatefulPartitionedCall/functional_1/tf_op_layer_strided_slice/strided_slice", "StatefulPartitionedCall/functional_1/tf_op_layer_Reshape/shape/Reshape/shape/1", "StatefulPartitionedCall/functional_1/tf_op_layer_Reshape/shape/Reshape/shape/2", "StatefulPartitionedCall/functional_1/tf_op_layer_Reshape/shape/Reshape/shape/3", "StatefulPartitionedCall/functional_1/tf_op_layer_Reshape/shape/Reshape/shape/4"], "attr": {"T": {"type": "DT_INT32"}, "axis": {"i": "0"}, "N": {"i": "5"}, "_cloned": {"b": true}}}, {"name": "StatefulPartitionedCall/functional_1/tf_op_layer_Reshape_1/shape/Reshape_1/shape", "op": "Pack", "input": ["StatefulPartitionedCall/functional_1/tf_op_layer_strided_slice/strided_slice", "StatefulPartitionedCall/functional_1/tf_op_layer_Reshape_1/shape/Reshape_1/shape/1", "StatefulPartitionedCall/functional_1/tf_op_layer_Reshape_1/shape/Reshape_1/shape/2"], "attr": {"_cloned": {"b": true}, "T": {"type": "DT_INT32"}, "axis": {"i": "0"}, "N": {"i": "3"}}}, {"name": "StatefulPartitionedCall/functional_1/tf_op_layer_Mul_4/Mul_4", "op": "Mul", "input": ["StatefulPartitionedCall/functional_1/tf_op_layer_Sigmoid_3/Sigmoid_3", "StatefulPartitionedCall/functional_1/tf_op_layer_Mul_4/Mul_4/y"], "attr": {"_cloned": {"b": true}, "T": {"type": "DT_FLOAT"}}}, {"name": "StatefulPartitionedCall/functional_1/tf_op_layer_Mul_6/Mul_6", "op": "Mul", "input": ["StatefulPartitionedCall/functional_1/tf_op_layer_Exp_1/Exp_1", "StatefulPartitionedCall/functional_1/tf_op_layer_Mul_6/Mul_6/y"], "attr": {"_cloned": {"b": true}, "T": {"type": "DT_FLOAT"}}}, {"name": "StatefulPartitionedCall/functional_1/tf_op_layer_Mul_7/Mul_7", "op": "Mul", "input": ["StatefulPartitionedCall/functional_1/tf_op_layer_Sigmoid_4/Sigmoid_4", "StatefulPartitionedCall/functional_1/tf_op_layer_Sigmoid_5/Sigmoid_5"], "attr": {"T": {"type": "DT_FLOAT"}, "_cloned": {"b": true}}}, {"name": "StatefulPartitionedCall/functional_1/tf_op_layer_Tile/Tile", "op": "Tile", "input": ["StatefulPartitionedCall/functional_1/tf_op_layer_Tile/Tile/input", "StatefulPartitionedCall/functional_1/tf_op_layer_Tile/multiples/Tile/multiples"], "attr": {"_cloned": {"b": true}, "Tmultiples": {"type": "DT_INT32"}, "T": {"type": "DT_INT32"}}}, {"name": "StatefulPartitionedCall/functional_1/tf_op_layer_Reshape/Reshape", "op": "Reshape", "input": ["StatefulPartitionedCall/functional_1/conv2d_20/BiasAdd", "StatefulPartitionedCall/functional_1/tf_op_layer_Reshape/shape/Reshape/shape"], "attr": {"_cloned": {"b": true}, "T": {"type": "DT_FLOAT"}, "Tshape": {"type": "DT_INT32"}}}, {"name": "StatefulPartitionedCall/functional_1/tf_op_layer_Sub_1/Sub_1", "op": "Sub", "input": ["StatefulPartitionedCall/functional_1/tf_op_layer_Mul_4/Mul_4", "StatefulPartitionedCall/functional_1/tf_op_layer_Sub_1/Sub_1/y"], "attr": {"T": {"type": "DT_FLOAT"}, "_cloned": {"b": true}}}, {"name": "StatefulPartitionedCall/functional_1/tf_op_layer_Reshape_4/Reshape_4", "op": "Reshape", "input": ["StatefulPartitionedCall/functional_1/tf_op_layer_Mul_7/Mul_7", "StatefulPartitionedCall/functional_1/tf_op_layer_Reshape_4/shape/Reshape_4/shape"], "attr": {"T": {"type": "DT_FLOAT"}, "Tshape": {"type": "DT_INT32"}, "_cloned": {"b": true}}}, {"name": "StatefulPartitionedCall/functional_1/tf_op_layer_Cast/Cast", "op": "Cast", "input": ["StatefulPartitionedCall/functional_1/tf_op_layer_Tile/Tile"], "attr": {"SrcT": {"type": "DT_INT32"}, "Truncate": {"b": false}, "DstT": {"type": "DT_FLOAT"}, "_cloned": {"b": true}}}, {"name": "StatefulPartitionedCall/functional_1/tf_op_layer_split_3/split_3", "op": "SplitV", "input": ["StatefulPartitionedCall/functional_1/tf_op_layer_Reshape/Reshape", "StatefulPartitionedCall/functional_1/tf_op_layer_split_3/split_3/size_splits", "StatefulPartitionedCall/functional_1/tf_op_layer_split_3/split_3/split_dim"], "attr": {"T": {"type": "DT_FLOAT"}, "num_split": {"i": "4"}, "Tlen": {"type": "DT_INT32"}, "_cloned": {"b": true}}}, {"name": "StatefulPartitionedCall/functional_1/tf_op_layer_AddV2_1/AddV2_1", "op": "AddV2", "input": ["StatefulPartitionedCall/functional_1/tf_op_layer_Sub_1/Sub_1", "StatefulPartitionedCall/functional_1/tf_op_layer_Cast_1/Cast_1"], "attr": {"_cloned": {"b": true}, "T": {"type": "DT_FLOAT"}}}, {"name": "StatefulPartitionedCall/functional_1/tf_op_layer_Sigmoid/Sigmoid", "op": "Sigmoid", "input": ["StatefulPartitionedCall/functional_1/tf_op_layer_split_3/split_3"], "attr": {"_cloned": {"b": true}, "T": {"type": "DT_FLOAT"}}}, {"name": "StatefulPartitionedCall/functional_1/tf_op_layer_Exp/Exp", "op": "Exp", "input": ["StatefulPartitionedCall/functional_1/tf_op_layer_split_3/split_3:1"], "attr": {"T": {"type": "DT_FLOAT"}, "_cloned": {"b": true}}}, {"name": "StatefulPartitionedCall/functional_1/tf_op_layer_Sigmoid_1/Sigmoid_1", "op": "Sigmoid", "input": ["StatefulPartitionedCall/functional_1/tf_op_layer_split_3/split_3:2"], "attr": {"_cloned": {"b": true}, "T": {"type": "DT_FLOAT"}}}, {"name": "StatefulPartitionedCall/functional_1/tf_op_layer_Sigmoid_2/Sigmoid_2", "op": "Sigmoid", "input": ["StatefulPartitionedCall/functional_1/tf_op_layer_split_3/split_3:3"], "attr": {"T": {"type": "DT_FLOAT"}, "_cloned": {"b": true}}}, {"name": "StatefulPartitionedCall/functional_1/tf_op_layer_Mul_5/Mul_5", "op": "Mul", "input": ["StatefulPartitionedCall/functional_1/tf_op_layer_AddV2_1/AddV2_1", "StatefulPartitionedCall/functional_1/tf_op_layer_Mul_5/Mul_5/y"], "attr": {"T": {"type": "DT_FLOAT"}, "_cloned": {"b": true}}}, {"name": "StatefulPartitionedCall/functional_1/tf_op_layer_Mul/Mul", "op": "Mul", "input": ["StatefulPartitionedCall/functional_1/tf_op_layer_Sigmoid/Sigmoid", "StatefulPartitionedCall/functional_1/tf_op_layer_Mul/Mul/y"], "attr": {"T": {"type": "DT_FLOAT"}, "_cloned": {"b": true}}}, {"name": "StatefulPartitionedCall/functional_1/tf_op_layer_Mul_2/Mul_2", "op": "Mul", "input": ["StatefulPartitionedCall/functional_1/tf_op_layer_Exp/Exp", "StatefulPartitionedCall/functional_1/tf_op_layer_Mul_2/Mul_2/y"], "attr": {"_cloned": {"b": true}, "T": {"type": "DT_FLOAT"}}}, {"name": "StatefulPartitionedCall/functional_1/tf_op_layer_Mul_3/Mul_3", "op": "Mul", "input": ["StatefulPartitionedCall/functional_1/tf_op_layer_Sigmoid_1/Sigmoid_1", "StatefulPartitionedCall/functional_1/tf_op_layer_Sigmoid_2/Sigmoid_2"], "attr": {"_cloned": {"b": true}, "T": {"type": "DT_FLOAT"}}}, {"name": "StatefulPartitionedCall/functional_1/tf_op_layer_concat_8/concat_8", "op": "ConcatV2", "input": ["StatefulPartitionedCall/functional_1/tf_op_layer_Mul_5/Mul_5", "StatefulPartitionedCall/functional_1/tf_op_layer_Mul_6/Mul_6", "StatefulPartitionedCall/functional_1/tf_op_layer_concat_8/concat_8/axis"], "attr": {"_cloned": {"b": true}, "Tidx": {"type": "DT_INT32"}, "T": {"type": "DT_FLOAT"}, "N": {"i": "2"}}}, {"name": "StatefulPartitionedCall/functional_1/tf_op_layer_Sub/Sub", "op": "Sub", "input": ["StatefulPartitionedCall/functional_1/tf_op_layer_Mul/Mul", "StatefulPartitionedCall/functional_1/tf_op_layer_Sub/Sub/y"], "attr": {"_cloned": {"b": true}, "T": {"type": "DT_FLOAT"}}}, {"name": "StatefulPartitionedCall/functional_1/tf_op_layer_Reshape_1/Reshape_1", "op": "Reshape", "input": ["StatefulPartitionedCall/functional_1/tf_op_layer_Mul_3/Mul_3", "StatefulPartitionedCall/functional_1/tf_op_layer_Reshape_1/shape/Reshape_1/shape"], "attr": {"T": {"type": "DT_FLOAT"}, "Tshape": {"type": "DT_INT32"}, "_cloned": {"b": true}}}, {"name": "StatefulPartitionedCall/functional_1/tf_op_layer_Reshape_5/Reshape_5", "op": "Reshape", "input": ["StatefulPartitionedCall/functional_1/tf_op_layer_concat_8/concat_8", "StatefulPartitionedCall/functional_1/tf_op_layer_Reshape_5/shape/Reshape_5/shape"], "attr": {"T": {"type": "DT_FLOAT"}, "Tshape": {"type": "DT_INT32"}, "_cloned": {"b": true}}}, {"name": "StatefulPartitionedCall/functional_1/tf_op_layer_AddV2/AddV2", "op": "AddV2", "input": ["StatefulPartitionedCall/functional_1/tf_op_layer_Sub/Sub", "StatefulPartitionedCall/functional_1/tf_op_layer_Cast/Cast"], "attr": {"_cloned": {"b": true}, "T": {"type": "DT_FLOAT"}}}, {"name": "StatefulPartitionedCall/functional_1/tf_op_layer_concat_10/concat_10", "op": "ConcatV2", "input": ["StatefulPartitionedCall/functional_1/tf_op_layer_Reshape_1/Reshape_1", "StatefulPartitionedCall/functional_1/tf_op_layer_Reshape_4/Reshape_4", "StatefulPartitionedCall/functional_1/tf_op_layer_concat_10/concat_10/axis"], "attr": {"T": {"type": "DT_FLOAT"}, "N": {"i": "2"}, "_cloned": {"b": true}, "Tidx": {"type": "DT_INT32"}}}, {"name": "StatefulPartitionedCall/functional_1/tf_op_layer_Mul_1/Mul_1", "op": "Mul", "input": ["StatefulPartitionedCall/functional_1/tf_op_layer_AddV2/AddV2", "StatefulPartitionedCall/functional_1/tf_op_layer_Mul_1/Mul_1/y"], "attr": {"_cloned": {"b": true}, "T": {"type": "DT_FLOAT"}}}, {"name": "StatefulPartitionedCall/functional_1/tf_op_layer_Shape_8/Shape_8", "op": "Shape", "input": ["StatefulPartitionedCall/functional_1/tf_op_layer_concat_10/concat_10"], "attr": {"_cloned": {"b": true}, "T": {"type": "DT_FLOAT"}, "out_type": {"type": "DT_INT32"}}}, {"name": "StatefulPartitionedCall/functional_1/tf_op_layer_Shape_10/Shape_10", "op": "Shape", "input": ["StatefulPartitionedCall/functional_1/tf_op_layer_concat_10/concat_10"], "attr": {"T": {"type": "DT_FLOAT"}, "out_type": {"type": "DT_INT32"}, "_cloned": {"b": true}}}, {"name": "StatefulPartitionedCall/functional_1/tf_op_layer_Shape_6/Shape_6", "op": "Shape", "input": ["StatefulPartitionedCall/functional_1/tf_op_layer_concat_10/concat_10"], "attr": {"T": {"type": "DT_FLOAT"}, "out_type": {"type": "DT_INT32"}, "_cloned": {"b": true}}}, {"name": "StatefulPartitionedCall/functional_1/tf_op_layer_Shape_5/Shape_5", "op": "Shape", "input": ["StatefulPartitionedCall/functional_1/tf_op_layer_concat_10/concat_10"], "attr": {"_cloned": {"b": true}, "T": {"type": "DT_FLOAT"}, "out_type": {"type": "DT_INT32"}}}, {"name": "StatefulPartitionedCall/functional_1/tf_op_layer_Shape_7/Shape_7", "op": "Shape", "input": ["StatefulPartitionedCall/functional_1/tf_op_layer_concat_10/concat_10"], "attr": {"_cloned": {"b": true}, "T": {"type": "DT_FLOAT"}, "out_type": {"type": "DT_INT32"}}}, {"name": "StatefulPartitionedCall/functional_1/tf_op_layer_Max/Max", "op": "Max", "input": ["StatefulPartitionedCall/functional_1/tf_op_layer_concat_10/concat_10", "StatefulPartitionedCall/functional_1/tf_op_layer_Max/Max/reduction_indices"], "attr": {"T": {"type": "DT_FLOAT"}, "_cloned": {"b": true}, "keep_dims": {"b": false}, "Tidx": {"type": "DT_INT32"}}}, {"name": "StatefulPartitionedCall/functional_1/tf_op_layer_concat_7/concat_7", "op": "ConcatV2", "input": ["StatefulPartitionedCall/functional_1/tf_op_layer_Mul_1/Mul_1", "StatefulPartitionedCall/functional_1/tf_op_layer_Mul_2/Mul_2", "StatefulPartitionedCall/functional_1/tf_op_layer_concat_7/concat_7/axis"], "attr": {"T": {"type": "DT_FLOAT"}, "N": {"i": "2"}, "_cloned": {"b": true}, "Tidx": {"type": "DT_INT32"}}}, {"name": "StatefulPartitionedCall/functional_1/tf_op_layer_strided_slice_8/strided_slice_8", "op": "StridedSlice", "input": ["StatefulPartitionedCall/functional_1/tf_op_layer_Shape_8/Shape_8", "StatefulPartitionedCall/functional_1/tf_op_layer_strided_slice_8/strided_slice_8/begin", "StatefulPartitionedCall/functional_1/tf_op_layer_strided_slice_8/strided_slice_8/end", "StatefulPartitionedCall/functional_1/tf_op_layer_strided_slice_8/strided_slice_8/strides"], "attr": {"Index": {"type": "DT_INT32"}, "T": {"type": "DT_INT32"}, "shrink_axis_mask": {"i": "1"}, "begin_mask": {"i": "0"}, "ellipsis_mask": {"i": "0"}, "new_axis_mask": {"i": "0"}, "end_mask": {"i": "0"}, "_cloned": {"b": true}}}, {"name": "StatefulPartitionedCall/functional_1/tf_op_layer_strided_slice_10/strided_slice_10", "op": "StridedSlice", "input": ["StatefulPartitionedCall/functional_1/tf_op_layer_Shape_10/Shape_10", "StatefulPartitionedCall/functional_1/tf_op_layer_strided_slice_10/strided_slice_10/begin", "StatefulPartitionedCall/functional_1/tf_op_layer_strided_slice_10/strided_slice_10/end", "StatefulPartitionedCall/functional_1/tf_op_layer_strided_slice_10/strided_slice_10/strides"], "attr": {"shrink_axis_mask": {"i": "1"}, "begin_mask": {"i": "0"}, "ellipsis_mask": {"i": "0"}, "new_axis_mask": {"i": "0"}, "end_mask": {"i": "0"}, "_cloned": {"b": true}, "Index": {"type": "DT_INT32"}, "T": {"type": "DT_INT32"}}}, {"name": "StatefulPartitionedCall/functional_1/tf_op_layer_strided_slice_6/strided_slice_6", "op": "StridedSlice", "input": ["StatefulPartitionedCall/functional_1/tf_op_layer_Shape_6/Shape_6", "StatefulPartitionedCall/functional_1/tf_op_layer_strided_slice_6/strided_slice_6/begin", "StatefulPartitionedCall/functional_1/tf_op_layer_strided_slice_6/strided_slice_6/end", "StatefulPartitionedCall/functional_1/tf_op_layer_strided_slice_6/strided_slice_6/strides"], "attr": {"shrink_axis_mask": {"i": "0"}, "begin_mask": {"i": "1"}, "ellipsis_mask": {"i": "0"}, "new_axis_mask": {"i": "0"}, "end_mask": {"i": "0"}, "_cloned": {"b": true}, "T": {"type": "DT_INT32"}, "Index": {"type": "DT_INT32"}}}, {"name": "StatefulPartitionedCall/functional_1/tf_op_layer_strided_slice_5/strided_slice_5", "op": "StridedSlice", "input": ["StatefulPartitionedCall/functional_1/tf_op_layer_Shape_5/Shape_5", "StatefulPartitionedCall/functional_1/tf_op_layer_strided_slice_5/strided_slice_5/begin", "StatefulPartitionedCall/functional_1/tf_op_layer_strided_slice_5/strided_slice_5/end", "StatefulPartitionedCall/functional_1/tf_op_layer_strided_slice_5/strided_slice_5/strides"], "attr": {"_cloned": {"b": true}, "T": {"type": "DT_INT32"}, "Index": {"type": "DT_INT32"}, "shrink_axis_mask": {"i": "0"}, "ellipsis_mask": {"i": "0"}, "begin_mask": {"i": "0"}, "new_axis_mask": {"i": "0"}, "end_mask": {"i": "0"}}}, {"name": "StatefulPartitionedCall/functional_1/tf_op_layer_strided_slice_7/strided_slice_7", "op": "StridedSlice", "input": ["StatefulPartitionedCall/functional_1/tf_op_layer_Shape_7/Shape_7", "StatefulPartitionedCall/functional_1/tf_op_layer_strided_slice_7/strided_slice_7/begin", "StatefulPartitionedCall/functional_1/tf_op_layer_strided_slice_7/strided_slice_7/end", "StatefulPartitionedCall/functional_1/tf_op_layer_strided_slice_7/strided_slice_7/strides"], "attr": {"ellipsis_mask": {"i": "0"}, "begin_mask": {"i": "0"}, "new_axis_mask": {"i": "0"}, "end_mask": {"i": "1"}, "_cloned": {"b": true}, "Index": {"type": "DT_INT32"}, "T": {"type": "DT_INT32"}, "shrink_axis_mask": {"i": "0"}}}, {"name": "StatefulPartitionedCall/functional_1/tf_op_layer_GreaterEqual/GreaterEqual", "op": "GreaterEqual", "input": ["StatefulPartitionedCall/functional_1/tf_op_layer_Max/Max", "StatefulPartitionedCall/functional_1/tf_op_layer_GreaterEqual/GreaterEqual/y"], "attr": {"T": {"type": "DT_FLOAT"}, "_cloned": {"b": true}}}, {"name": "StatefulPartitionedCall/functional_1/tf_op_layer_Reshape_2/Reshape_2", "op": "Reshape", "input": ["StatefulPartitionedCall/functional_1/tf_op_layer_concat_7/concat_7", "StatefulPartitionedCall/functional_1/tf_op_layer_Reshape_2/shape/Reshape_2/shape"], "attr": {"T": {"type": "DT_FLOAT"}, "Tshape": {"type": "DT_INT32"}, "_cloned": {"b": true}}}, {"name": "StatefulPartitionedCall/functional_1/tf_op_layer_Prod_1/Prod_1", "op": "Prod", "input": ["StatefulPartitionedCall/functional_1/tf_op_layer_strided_slice_5/strided_slice_5", "StatefulPartitionedCall/functional_1/tf_op_layer_Prod_1/Prod_1/reduction_indices"], "attr": {"_cloned": {"b": true}, "keep_dims": {"b": false}, "Tidx": {"type": "DT_INT32"}, "T": {"type": "DT_INT32"}}}, {"name": "StatefulPartitionedCall/functional_1/tf_op_layer_Reshape_9/Reshape_9", "op": "Reshape", "input": ["StatefulPartitionedCall/functional_1/tf_op_layer_GreaterEqual/GreaterEqual", "StatefulPartitionedCall/functional_1/tf_op_layer_Reshape_9/Reshape_9/shape"], "attr": {"Tshape": {"type": "DT_INT32"}, "_cloned": {"b": true}, "T": {"type": "DT_BOOL"}}}, {"name": "StatefulPartitionedCall/functional_1/tf_op_layer_Reshape_7/Reshape_7", "op": "Reshape", "input": ["StatefulPartitionedCall/functional_1/tf_op_layer_GreaterEqual/GreaterEqual", "StatefulPartitionedCall/functional_1/tf_op_layer_Reshape_7/Reshape_7/shape"], "attr": {"_cloned": {"b": true}, "T": {"type": "DT_BOOL"}, "Tshape": {"type": "DT_INT32"}}}, {"name": "StatefulPartitionedCall/functional_1/tf_op_layer_concat_9/concat_9", "op": "ConcatV2", "input": ["StatefulPartitionedCall/functional_1/tf_op_layer_Reshape_2/Reshape_2", "StatefulPartitionedCall/functional_1/tf_op_layer_Reshape_5/Reshape_5", "StatefulPartitionedCall/functional_1/tf_op_layer_concat_9/concat_9/axis"], "attr": {"_cloned": {"b": true}, "Tidx": {"type": "DT_INT32"}, "T": {"type": "DT_FLOAT"}, "N": {"i": "2"}}}, {"name": "ConstantFolding/StatefulPartitionedCall/functional_1/tf_op_layer_concat_12/values_1/concat_12/values_1_const_axis", "op": "Const", "input": ["^StatefulPartitionedCall/functional_1/tf_op_layer_Prod_1/Prod_1"], "attr": {"value": {"tensor": {"dtype": "DT_INT32", "tensorShape": {}}}, "dtype": {"type": "DT_INT32"}}}, {"name": "StatefulPartitionedCall/functional_1/tf_op_layer_Where_1/Where_1", "op": "Where", "input": ["StatefulPartitionedCall/functional_1/tf_op_layer_Reshape_9/Reshape_9"], "attr": {"T": {"type": "DT_BOOL"}, "_cloned": {"b": true}}}, {"name": "StatefulPartitionedCall/functional_1/tf_op_layer_Where/Where", "op": "Where", "input": ["StatefulPartitionedCall/functional_1/tf_op_layer_Reshape_7/Reshape_7"], "attr": {"T": {"type": "DT_BOOL"}, "_cloned": {"b": true}}}, {"name": "StatefulPartitionedCall/functional_1/tf_op_layer_Shape_3/Shape_3", "op": "Shape", "input": ["StatefulPartitionedCall/functional_1/tf_op_layer_concat_9/concat_9"], "attr": {"_cloned": {"b": true}, "T": {"type": "DT_FLOAT"}, "out_type": {"type": "DT_INT32"}}}, {"name": "StatefulPartitionedCall/functional_1/tf_op_layer_Shape_2/Shape_2", "op": "Shape", "input": ["StatefulPartitionedCall/functional_1/tf_op_layer_concat_9/concat_9"], "attr": {"_cloned": {"b": true}, "T": {"type": "DT_FLOAT"}, "out_type": {"type": "DT_INT32"}}}, {"name": "StatefulPartitionedCall/functional_1/tf_op_layer_Shape_4/Shape_4", "op": "Shape", "input": ["StatefulPartitionedCall/functional_1/tf_op_layer_concat_9/concat_9"], "attr": {"T": {"type": "DT_FLOAT"}, "out_type": {"type": "DT_INT32"}, "_cloned": {"b": true}}}, {"name": "StatefulPartitionedCall/functional_1/tf_op_layer_concat_12/values_1/concat_12/values_1", "op": "ExpandDims", "input": ["StatefulPartitionedCall/functional_1/tf_op_layer_Prod_1/Prod_1", "ConstantFolding/StatefulPartitionedCall/functional_1/tf_op_layer_concat_12/values_1/concat_12/values_1_const_axis"], "attr": {"_cloned": {"b": true}, "Tdim": {"type": "DT_INT32"}, "T": {"type": "DT_INT32"}}}, {"name": "StatefulPartitionedCall/functional_1/tf_op_layer_Squeeze_1/Squeeze_1", "op": "Squeeze", "input": ["StatefulPartitionedCall/functional_1/tf_op_layer_Where_1/Where_1"], "attr": {"_cloned": {"b": true}, "squeeze_dims": {"list": {"i": ["1"]}}, "T": {"type": "DT_INT64"}}}, {"name": "StatefulPartitionedCall/functional_1/tf_op_layer_Squeeze/Squeeze", "op": "Squeeze", "input": ["StatefulPartitionedCall/functional_1/tf_op_layer_Where/Where"], "attr": {"_cloned": {"b": true}, "squeeze_dims": {"list": {"i": ["1"]}}, "T": {"type": "DT_INT64"}}}, {"name": "StatefulPartitionedCall/functional_1/tf_op_layer_strided_slice_3/strided_slice_3", "op": "StridedSlice", "input": ["StatefulPartitionedCall/functional_1/tf_op_layer_Shape_3/Shape_3", "StatefulPartitionedCall/functional_1/tf_op_layer_strided_slice_3/strided_slice_3/begin", "StatefulPartitionedCall/functional_1/tf_op_layer_strided_slice_3/strided_slice_3/end", "StatefulPartitionedCall/functional_1/tf_op_layer_strided_slice_3/strided_slice_3/strides"], "attr": {"T": {"type": "DT_INT32"}, "Index": {"type": "DT_INT32"}, "shrink_axis_mask": {"i": "0"}, "begin_mask": {"i": "1"}, "ellipsis_mask": {"i": "0"}, "new_axis_mask": {"i": "0"}, "end_mask": {"i": "0"}, "_cloned": {"b": true}}}, {"name": "StatefulPartitionedCall/functional_1/tf_op_layer_strided_slice_2/strided_slice_2", "op": "StridedSlice", "input": ["StatefulPartitionedCall/functional_1/tf_op_layer_Shape_2/Shape_2", "StatefulPartitionedCall/functional_1/tf_op_layer_strided_slice_2/strided_slice_2/begin", "StatefulPartitionedCall/functional_1/tf_op_layer_strided_slice_2/strided_slice_2/end", "StatefulPartitionedCall/functional_1/tf_op_layer_strided_slice_2/strided_slice_2/strides"], "attr": {"T": {"type": "DT_INT32"}, "Index": {"type": "DT_INT32"}, "shrink_axis_mask": {"i": "0"}, "ellipsis_mask": {"i": "0"}, "begin_mask": {"i": "0"}, "new_axis_mask": {"i": "0"}, "end_mask": {"i": "0"}, "_cloned": {"b": true}}}, {"name": "StatefulPartitionedCall/functional_1/tf_op_layer_strided_slice_4/strided_slice_4", "op": "StridedSlice", "input": ["StatefulPartitionedCall/functional_1/tf_op_layer_Shape_4/Shape_4", "StatefulPartitionedCall/functional_1/tf_op_layer_strided_slice_4/strided_slice_4/begin", "StatefulPartitionedCall/functional_1/tf_op_layer_strided_slice_4/strided_slice_4/end", "StatefulPartitionedCall/functional_1/tf_op_layer_strided_slice_4/strided_slice_4/strides"], "attr": {"_cloned": {"b": true}, "Index": {"type": "DT_INT32"}, "T": {"type": "DT_INT32"}, "shrink_axis_mask": {"i": "0"}, "ellipsis_mask": {"i": "0"}, "begin_mask": {"i": "0"}, "new_axis_mask": {"i": "0"}, "end_mask": {"i": "1"}}}, {"name": "StatefulPartitionedCall/functional_1/tf_op_layer_concat_12/concat_12", "op": "ConcatV2", "input": ["StatefulPartitionedCall/functional_1/tf_op_layer_strided_slice_6/strided_slice_6", "StatefulPartitionedCall/functional_1/tf_op_layer_concat_12/values_1/concat_12/values_1", "StatefulPartitionedCall/functional_1/tf_op_layer_strided_slice_7/strided_slice_7", "StatefulPartitionedCall/functional_1/tf_op_layer_concat_12/concat_12/axis"], "attr": {"N": {"i": "3"}, "_cloned": {"b": true}, "Tidx": {"type": "DT_INT32"}, "T": {"type": "DT_INT32"}}}, {"name": "StatefulPartitionedCall/functional_1/tf_op_layer_Prod/Prod", "op": "Prod", "input": ["StatefulPartitionedCall/functional_1/tf_op_layer_strided_slice_2/strided_slice_2", "StatefulPartitionedCall/functional_1/tf_op_layer_Prod/Prod/reduction_indices"], "attr": {"_cloned": {"b": true}, "keep_dims": {"b": false}, "Tidx": {"type": "DT_INT32"}, "T": {"type": "DT_INT32"}}}, {"name": "StatefulPartitionedCall/functional_1/tf_op_layer_Reshape_8/Reshape_8", "op": "Reshape", "input": ["StatefulPartitionedCall/functional_1/tf_op_layer_concat_10/concat_10", "StatefulPartitionedCall/functional_1/tf_op_layer_concat_12/concat_12"], "attr": {"_cloned": {"b": true}, "T": {"type": "DT_FLOAT"}, "Tshape": {"type": "DT_INT32"}}}, {"name": "ConstantFolding/StatefulPartitionedCall/functional_1/tf_op_layer_concat_11/values_1/concat_11/values_1_const_axis", "op": "Const", "input": ["^StatefulPartitionedCall/functional_1/tf_op_layer_Prod/Prod"], "attr": {"value": {"tensor": {"dtype": "DT_INT32", "tensorShape": {}}}, "dtype": {"type": "DT_INT32"}}}, {"name": "StatefulPartitionedCall/functional_1/tf_op_layer_GatherV2_1/GatherV2_1", "op": "GatherV2", "input": ["StatefulPartitionedCall/functional_1/tf_op_layer_Reshape_8/Reshape_8", "StatefulPartitionedCall/functional_1/tf_op_layer_Squeeze_1/Squeeze_1", "StatefulPartitionedCall/functional_1/tf_op_layer_GatherV2_1/GatherV2_1/axis"], "attr": {"_cloned": {"b": true}, "Taxis": {"type": "DT_INT32"}, "batch_dims": {"i": "0"}, "Tindices": {"type": "DT_INT64"}, "Tparams": {"type": "DT_FLOAT"}}}, {"name": "StatefulPartitionedCall/functional_1/tf_op_layer_concat_11/values_1/concat_11/values_1", "op": "ExpandDims", "input": ["StatefulPartitionedCall/functional_1/tf_op_layer_Prod/Prod", "ConstantFolding/StatefulPartitionedCall/functional_1/tf_op_layer_concat_11/values_1/concat_11/values_1_const_axis"], "attr": {"_cloned": {"b": true}, "Tdim": {"type": "DT_INT32"}, "T": {"type": "DT_INT32"}}}, {"name": "StatefulPartitionedCall/functional_1/tf_op_layer_Shape_11/Shape_11", "op": "Shape", "input": ["StatefulPartitionedCall/functional_1/tf_op_layer_GatherV2_1/GatherV2_1"], "attr": {"_cloned": {"b": true}, "T": {"type": "DT_FLOAT"}, "out_type": {"type": "DT_INT32"}}}, {"name": "StatefulPartitionedCall/functional_1/tf_op_layer_concat_11/concat_11", "op": "ConcatV2", "input": ["StatefulPartitionedCall/functional_1/tf_op_layer_strided_slice_3/strided_slice_3", "StatefulPartitionedCall/functional_1/tf_op_layer_concat_11/values_1/concat_11/values_1", "StatefulPartitionedCall/functional_1/tf_op_layer_strided_slice_4/strided_slice_4", "StatefulPartitionedCall/functional_1/tf_op_layer_concat_11/concat_11/axis"], "attr": {"Tidx": {"type": "DT_INT32"}, "T": {"type": "DT_INT32"}, "N": {"i": "3"}, "_cloned": {"b": true}}}, {"name": "StatefulPartitionedCall/functional_1/tf_op_layer_strided_slice_11/strided_slice_11", "op": "StridedSlice", "input": ["StatefulPartitionedCall/functional_1/tf_op_layer_Shape_11/Shape_11", "StatefulPartitionedCall/functional_1/tf_op_layer_strided_slice_11/strided_slice_11/begin", "StatefulPartitionedCall/functional_1/tf_op_layer_strided_slice_11/strided_slice_11/end", "StatefulPartitionedCall/functional_1/tf_op_layer_strided_slice_11/strided_slice_11/strides"], "attr": {"shrink_axis_mask": {"i": "1"}, "begin_mask": {"i": "0"}, "ellipsis_mask": {"i": "0"}, "new_axis_mask": {"i": "0"}, "end_mask": {"i": "0"}, "_cloned": {"b": true}, "T": {"type": "DT_INT32"}, "Index": {"type": "DT_INT32"}}}, {"name": "StatefulPartitionedCall/functional_1/tf_op_layer_Reshape_6/Reshape_6", "op": "Reshape", "input": ["StatefulPartitionedCall/functional_1/tf_op_layer_concat_9/concat_9", "StatefulPartitionedCall/functional_1/tf_op_layer_concat_11/concat_11"], "attr": {"_cloned": {"b": true}, "T": {"type": "DT_FLOAT"}, "Tshape": {"type": "DT_INT32"}}}, {"name": "StatefulPartitionedCall/functional_1/tf_op_layer_Reshape_11/shape/Reshape_11/shape", "op": "Pack", "input": ["StatefulPartitionedCall/functional_1/tf_op_layer_strided_slice_10/strided_slice_10", "StatefulPartitionedCall/functional_1/tf_op_layer_Reshape_11/shape/Reshape_11/shape/1", "StatefulPartitionedCall/functional_1/tf_op_layer_strided_slice_11/strided_slice_11"], "attr": {"axis": {"i": "0"}, "N": {"i": "3"}, "_cloned": {"b": true}, "T": {"type": "DT_INT32"}}}, {"name": "StatefulPartitionedCall/functional_1/tf_op_layer_GatherV2/GatherV2", "op": "GatherV2", "input": ["StatefulPartitionedCall/functional_1/tf_op_layer_Reshape_6/Reshape_6", "StatefulPartitionedCall/functional_1/tf_op_layer_Squeeze/Squeeze", "StatefulPartitionedCall/functional_1/tf_op_layer_GatherV2/GatherV2/axis"], "attr": {"_cloned": {"b": true}, "Taxis": {"type": "DT_INT32"}, "batch_dims": {"i": "0"}, "Tindices": {"type": "DT_INT64"}, "Tparams": {"type": "DT_FLOAT"}}}, {"name": "StatefulPartitionedCall/functional_1/tf_op_layer_Reshape_11/Reshape_11", "op": "Reshape", "input": ["StatefulPartitionedCall/functional_1/tf_op_layer_GatherV2_1/GatherV2_1", "StatefulPartitionedCall/functional_1/tf_op_layer_Reshape_11/shape/Reshape_11/shape"], "attr": {"_cloned": {"b": true}, "T": {"type": "DT_FLOAT"}, "Tshape": {"type": "DT_INT32"}}}, {"name": "StatefulPartitionedCall/functional_1/tf_op_layer_Shape_9/Shape_9", "op": "Shape", "input": ["StatefulPartitionedCall/functional_1/tf_op_layer_GatherV2/GatherV2"], "attr": {"_cloned": {"b": true}, "T": {"type": "DT_FLOAT"}, "out_type": {"type": "DT_INT32"}}}, {"name": "StatefulPartitionedCall/functional_1/tf_op_layer_strided_slice_9/strided_slice_9", "op": "StridedSlice", "input": ["StatefulPartitionedCall/functional_1/tf_op_layer_Shape_9/Shape_9", "StatefulPartitionedCall/functional_1/tf_op_layer_strided_slice_9/strided_slice_9/begin", "StatefulPartitionedCall/functional_1/tf_op_layer_strided_slice_9/strided_slice_9/end", "StatefulPartitionedCall/functional_1/tf_op_layer_strided_slice_9/strided_slice_9/strides"], "attr": {"_cloned": {"b": true}, "Index": {"type": "DT_INT32"}, "T": {"type": "DT_INT32"}, "shrink_axis_mask": {"i": "1"}, "begin_mask": {"i": "0"}, "ellipsis_mask": {"i": "0"}, "new_axis_mask": {"i": "0"}, "end_mask": {"i": "0"}}}, {"name": "StatefulPartitionedCall/functional_1/tf_op_layer_Reshape_10/shape/Reshape_10/shape", "op": "Pack", "input": ["StatefulPartitionedCall/functional_1/tf_op_layer_strided_slice_8/strided_slice_8", "StatefulPartitionedCall/functional_1/tf_op_layer_Reshape_10/shape/Reshape_10/shape/1", "StatefulPartitionedCall/functional_1/tf_op_layer_strided_slice_9/strided_slice_9"], "attr": {"N": {"i": "3"}, "_cloned": {"b": true}, "T": {"type": "DT_INT32"}, "axis": {"i": "0"}}}, {"name": "StatefulPartitionedCall/functional_1/tf_op_layer_Reshape_10/Reshape_10", "op": "Reshape", "input": ["StatefulPartitionedCall/functional_1/tf_op_layer_GatherV2/GatherV2", "StatefulPartitionedCall/functional_1/tf_op_layer_Reshape_10/shape/Reshape_10/shape"], "attr": {"_cloned": {"b": true}, "T": {"type": "DT_FLOAT"}, "Tshape": {"type": "DT_INT32"}}}, {"name": "StatefulPartitionedCall/functional_1/tf_op_layer_split_5/split_5", "op": "SplitV", "input": ["StatefulPartitionedCall/functional_1/tf_op_layer_Reshape_10/Reshape_10", "StatefulPartitionedCall/functional_1/tf_op_layer_split_5/split_5/size_splits", "StatefulPartitionedCall/functional_1/tf_op_layer_split_5/split_5/split_dim"], "attr": {"num_split": {"i": "2"}, "Tlen": {"type": "DT_INT32"}, "_cloned": {"b": true}, "T": {"type": "DT_FLOAT"}}}, {"name": "StatefulPartitionedCall/functional_1/tf_op_layer_strided_slice_12/strided_slice_12", "op": "StridedSlice", "input": ["StatefulPartitionedCall/functional_1/tf_op_layer_split_5/split_5", "StatefulPartitionedCall/functional_1/tf_op_layer_strided_slice_12/strided_slice_12/begin", "StatefulPartitionedCall/functional_1/tf_op_layer_strided_slice_12/strided_slice_12/end", "StatefulPartitionedCall/functional_1/tf_op_layer_strided_slice_12/strided_slice_12/strides"], "attr": {"shrink_axis_mask": {"i": "0"}, "ellipsis_mask": {"i": "1"}, "begin_mask": {"i": "2"}, "new_axis_mask": {"i": "0"}, "end_mask": {"i": "2"}, "_cloned": {"b": true}, "T": {"type": "DT_FLOAT"}, "Index": {"type": "DT_INT32"}}}, {"name": "StatefulPartitionedCall/functional_1/tf_op_layer_strided_slice_13/strided_slice_13", "op": "StridedSlice", "input": ["StatefulPartitionedCall/functional_1/tf_op_layer_split_5/split_5:1", "StatefulPartitionedCall/functional_1/tf_op_layer_strided_slice_13/strided_slice_13/begin", "StatefulPartitionedCall/functional_1/tf_op_layer_strided_slice_13/strided_slice_13/end", "StatefulPartitionedCall/functional_1/tf_op_layer_strided_slice_13/strided_slice_13/strides"], "attr": {"ellipsis_mask": {"i": "1"}, "begin_mask": {"i": "2"}, "new_axis_mask": {"i": "0"}, "end_mask": {"i": "2"}, "_cloned": {"b": true}, "Index": {"type": "DT_INT32"}, "T": {"type": "DT_FLOAT"}, "shrink_axis_mask": {"i": "0"}}}, {"name": "StatefulPartitionedCall/functional_1/tf_op_layer_RealDiv/RealDiv", "op": "Mul", "input": ["StatefulPartitionedCall/functional_1/tf_op_layer_strided_slice_13/strided_slice_13", "ConstantFolding/StatefulPartitionedCall/functional_1/tf_op_layer_RealDiv/RealDiv_recip"], "attr": {"T": {"type": "DT_FLOAT"}, "_cloned": {"b": true}}}, {"name": "StatefulPartitionedCall/functional_1/tf_op_layer_RealDiv_2/RealDiv_2", "op": "Mul", "input": ["StatefulPartitionedCall/functional_1/tf_op_layer_strided_slice_13/strided_slice_13", "ConstantFolding/StatefulPartitionedCall/functional_1/tf_op_layer_RealDiv_2/RealDiv_2_recip"], "attr": {"_cloned": {"b": true}, "T": {"type": "DT_FLOAT"}}}, {"name": "StatefulPartitionedCall/functional_1/tf_op_layer_Sub_2/Sub_2", "op": "Sub", "input": ["StatefulPartitionedCall/functional_1/tf_op_layer_strided_slice_12/strided_slice_12", "StatefulPartitionedCall/functional_1/tf_op_layer_RealDiv/RealDiv"], "attr": {"_cloned": {"b": true}, "T": {"type": "DT_FLOAT"}}}, {"name": "StatefulPartitionedCall/functional_1/tf_op_layer_AddV2_2/AddV2_2", "op": "AddV2", "input": ["StatefulPartitionedCall/functional_1/tf_op_layer_strided_slice_12/strided_slice_12", "StatefulPartitionedCall/functional_1/tf_op_layer_RealDiv_2/RealDiv_2"], "attr": {"T": {"type": "DT_FLOAT"}, "_cloned": {"b": true}}}, {"name": "StatefulPartitionedCall/functional_1/tf_op_layer_RealDiv_1/RealDiv_1", "op": "Mul", "input": ["StatefulPartitionedCall/functional_1/tf_op_layer_Sub_2/Sub_2", "ConstantFolding/StatefulPartitionedCall/functional_1/tf_op_layer_RealDiv_1/RealDiv_1_recip"], "attr": {"_cloned": {"b": true}, "T": {"type": "DT_FLOAT"}}}, {"name": "StatefulPartitionedCall/functional_1/tf_op_layer_RealDiv_3/RealDiv_3", "op": "Mul", "input": ["StatefulPartitionedCall/functional_1/tf_op_layer_AddV2_2/AddV2_2", "ConstantFolding/StatefulPartitionedCall/functional_1/tf_op_layer_RealDiv_3/RealDiv_3_recip"], "attr": {"T": {"type": "DT_FLOAT"}, "_cloned": {"b": true}}}, {"name": "StatefulPartitionedCall/functional_1/tf_op_layer_strided_slice_14/strided_slice_14", "op": "StridedSlice", "input": ["StatefulPartitionedCall/functional_1/tf_op_layer_RealDiv_1/RealDiv_1", "StatefulPartitionedCall/functional_1/tf_op_layer_strided_slice_14/strided_slice_14/begin", "StatefulPartitionedCall/functional_1/tf_op_layer_strided_slice_14/strided_slice_14/end", "StatefulPartitionedCall/functional_1/tf_op_layer_strided_slice_14/strided_slice_14/strides"], "attr": {"shrink_axis_mask": {"i": "0"}, "ellipsis_mask": {"i": "1"}, "begin_mask": {"i": "0"}, "new_axis_mask": {"i": "0"}, "end_mask": {"i": "0"}, "_cloned": {"b": true}, "T": {"type": "DT_FLOAT"}, "Index": {"type": "DT_INT32"}}}, {"name": "StatefulPartitionedCall/functional_1/tf_op_layer_strided_slice_15/strided_slice_15", "op": "StridedSlice", "input": ["StatefulPartitionedCall/functional_1/tf_op_layer_RealDiv_1/RealDiv_1", "StatefulPartitionedCall/functional_1/tf_op_layer_strided_slice_15/strided_slice_15/begin", "StatefulPartitionedCall/functional_1/tf_op_layer_strided_slice_15/strided_slice_15/end", "StatefulPartitionedCall/functional_1/tf_op_layer_strided_slice_15/strided_slice_15/strides"], "attr": {"shrink_axis_mask": {"i": "0"}, "begin_mask": {"i": "0"}, "ellipsis_mask": {"i": "1"}, "new_axis_mask": {"i": "0"}, "end_mask": {"i": "0"}, "_cloned": {"b": true}, "T": {"type": "DT_FLOAT"}, "Index": {"type": "DT_INT32"}}}, {"name": "StatefulPartitionedCall/functional_1/tf_op_layer_strided_slice_16/strided_slice_16", "op": "StridedSlice", "input": ["StatefulPartitionedCall/functional_1/tf_op_layer_RealDiv_3/RealDiv_3", "StatefulPartitionedCall/functional_1/tf_op_layer_strided_slice_16/strided_slice_16/begin", "StatefulPartitionedCall/functional_1/tf_op_layer_strided_slice_16/strided_slice_16/end", "StatefulPartitionedCall/functional_1/tf_op_layer_strided_slice_16/strided_slice_16/strides"], "attr": {"shrink_axis_mask": {"i": "0"}, "begin_mask": {"i": "0"}, "ellipsis_mask": {"i": "1"}, "new_axis_mask": {"i": "0"}, "end_mask": {"i": "0"}, "_cloned": {"b": true}, "T": {"type": "DT_FLOAT"}, "Index": {"type": "DT_INT32"}}}, {"name": "StatefulPartitionedCall/functional_1/tf_op_layer_strided_slice_17/strided_slice_17", "op": "StridedSlice", "input": ["StatefulPartitionedCall/functional_1/tf_op_layer_RealDiv_3/RealDiv_3", "StatefulPartitionedCall/functional_1/tf_op_layer_strided_slice_17/strided_slice_17/begin", "StatefulPartitionedCall/functional_1/tf_op_layer_strided_slice_17/strided_slice_17/end", "StatefulPartitionedCall/functional_1/tf_op_layer_strided_slice_17/strided_slice_17/strides"], "attr": {"T": {"type": "DT_FLOAT"}, "Index": {"type": "DT_INT32"}, "shrink_axis_mask": {"i": "0"}, "ellipsis_mask": {"i": "1"}, "begin_mask": {"i": "0"}, "new_axis_mask": {"i": "0"}, "end_mask": {"i": "0"}, "_cloned": {"b": true}}}, {"name": "StatefulPartitionedCall/functional_1/tf_op_layer_concat_14/concat_14", "op": "ConcatV2", "input": ["StatefulPartitionedCall/functional_1/tf_op_layer_strided_slice_14/strided_slice_14", "StatefulPartitionedCall/functional_1/tf_op_layer_strided_slice_15/strided_slice_15", "StatefulPartitionedCall/functional_1/tf_op_layer_strided_slice_16/strided_slice_16", "StatefulPartitionedCall/functional_1/tf_op_layer_strided_slice_17/strided_slice_17", "StatefulPartitionedCall/functional_1/tf_op_layer_Reshape_11/Reshape_11", "StatefulPartitionedCall/functional_1/tf_op_layer_concat_14/concat_14/axis"], "attr": {"_cloned": {"b": true}, "Tidx": {"type": "DT_INT32"}, "T": {"type": "DT_FLOAT"}, "N": {"i": "5"}}}, {"name": "Identity", "op": "Identity", "input": ["StatefulPartitionedCall/functional_1/tf_op_layer_concat_14/concat_14"], "attr": {"T": {"type": "DT_FLOAT"}}}], "library": {}, "versions": {"producer": 440}}, "weightsManifest": [{"paths": ["group1-shard1of6.bin", "group1-shard2of6.bin", "group1-shard3of6.bin", "group1-shard4of6.bin", "group1-shard5of6.bin", "group1-shard6of6.bin"], "weights": [{"name": "StatefulPartitionedCall/functional_1/tf_op_layer_strided_slice_14/strided_slice_14/begin", "shape": [2], "dtype": "int32"}, {"name": "StatefulPartitionedCall/functional_1/tf_op_layer_strided_slice_14/strided_slice_14/end", "shape": [2], "dtype": "int32"}, {"name": "StatefulPartitionedCall/functional_1/tf_op_layer_strided_slice_14/strided_slice_14/strides", "shape": [2], "dtype": "int32"}, {"name": "ConstantFolding/StatefulPartitionedCall/functional_1/tf_op_layer_RealDiv/RealDiv_recip", "shape": [], "dtype": "float32"}, {"name": "ConstantFolding/StatefulPartitionedCall/functional_1/tf_op_layer_RealDiv_1/RealDiv_1_recip", "shape": [2], "dtype": "float32"}, {"name": "StatefulPartitionedCall/functional_1/tf_op_layer_strided_slice_15/strided_slice_15/begin", "shape": [2], "dtype": "int32"}, {"name": "StatefulPartitionedCall/functional_1/tf_op_layer_strided_slice_15/strided_slice_15/end", "shape": [2], "dtype": "int32"}, {"name": "StatefulPartitionedCall/functional_1/tf_op_layer_strided_slice_15/strided_slice_15/strides", "shape": [2], "dtype": "int32"}, {"name": "StatefulPartitionedCall/functional_1/tf_op_layer_strided_slice_16/strided_slice_16/begin", "shape": [2], "dtype": "int32"}, {"name": "StatefulPartitionedCall/functional_1/tf_op_layer_strided_slice_16/strided_slice_16/end", "shape": [2], "dtype": "int32"}, {"name": "StatefulPartitionedCall/functional_1/tf_op_layer_strided_slice_16/strided_slice_16/strides", "shape": [2], "dtype": "int32"}, {"name": "StatefulPartitionedCall/functional_1/tf_op_layer_strided_slice_12/strided_slice_12/begin", "shape": [2], "dtype": "int32"}, {"name": "StatefulPartitionedCall/functional_1/tf_op_layer_strided_slice_12/strided_slice_12/end", "shape": [2], "dtype": "int32"}, {"name": "StatefulPartitionedCall/functional_1/tf_op_layer_strided_slice_12/strided_slice_12/strides", "shape": [2], "dtype": "int32"}, {"name": "StatefulPartitionedCall/functional_1/tf_op_layer_strided_slice_8/strided_slice_8/begin", "shape": [1], "dtype": "int32"}, {"name": "StatefulPartitionedCall/functional_1/tf_op_layer_strided_slice_8/strided_slice_8/end", "shape": [1], "dtype": "int32"}, {"name": "StatefulPartitionedCall/functional_1/tf_op_layer_strided_slice_8/strided_slice_8/strides", "shape": [1], "dtype": "int32"}, {"name": "StatefulPartitionedCall/functional_1/tf_op_layer_Reshape_10/shape/Reshape_10/shape/1", "shape": [], "dtype": "int32"}, {"name": "StatefulPartitionedCall/functional_1/tf_op_layer_strided_slice_3/strided_slice_3/begin", "shape": [1], "dtype": "int32"}, {"name": "StatefulPartitionedCall/functional_1/tf_op_layer_strided_slice_3/strided_slice_3/end", "shape": [1], "dtype": "int32"}, {"name": "StatefulPartitionedCall/functional_1/tf_op_layer_strided_slice_3/strided_slice_3/strides", "shape": [1], "dtype": "int32"}, {"name": "StatefulPartitionedCall/functional_1/tf_op_layer_strided_slice_2/strided_slice_2/begin", "shape": [1], "dtype": "int32"}, {"name": "StatefulPartitionedCall/functional_1/tf_op_layer_strided_slice_2/strided_slice_2/end", "shape": [1], "dtype": "int32"}, {"name": "StatefulPartitionedCall/functional_1/tf_op_layer_strided_slice_2/strided_slice_2/strides", "shape": [1], "dtype": "int32"}, {"name": "StatefulPartitionedCall/functional_1/tf_op_layer_Prod/Prod/reduction_indices", "shape": [1], "dtype": "int32"}, {"name": "StatefulPartitionedCall/functional_1/tf_op_layer_Mul/Mul/y", "shape": [], "dtype": "float32"}, {"name": "StatefulPartitionedCall/functional_1/tf_op_layer_Sub/Sub/y", "shape": [], "dtype": "float32"}, {"name": "StatefulPartitionedCall/functional_1/tf_op_layer_Tile/Tile/input", "shape": [1, 26, 26, 1, 2], "dtype": "int32"}, {"name": "StatefulPartitionedCall/functional_1/tf_op_layer_Tile/multiples/Tile/multiples/1", "shape": [], "dtype": "int32"}, {"name": "StatefulPartitionedCall/functional_1/tf_op_layer_Tile/multiples/Tile/multiples/2", "shape": [], "dtype": "int32"}, {"name": "StatefulPartitionedCall/functional_1/tf_op_layer_Tile/multiples/Tile/multiples/3", "shape": [], "dtype": "int32"}, {"name": "StatefulPartitionedCall/functional_1/tf_op_layer_Tile/multiples/Tile/multiples/4", "shape": [], "dtype": "int32"}, {"name": "StatefulPartitionedCall/functional_1/tf_op_layer_Mul_1/Mul_1/y", "shape": [], "dtype": "float32"}, {"name": "StatefulPartitionedCall/functional_1/tf_op_layer_Mul_2/Mul_2/y", "shape": [3, 2], "dtype": "float32"}, {"name": "StatefulPartitionedCall/functional_1/tf_op_layer_concat_7/concat_7/axis", "shape": [], "dtype": "int32"}, {"name": "StatefulPartitionedCall/functional_1/tf_op_layer_Reshape_2/shape/Reshape_2/shape/1", "shape": [], "dtype": "int32"}, {"name": "StatefulPartitionedCall/functional_1/tf_op_layer_Reshape_2/shape/Reshape_2/shape/2", "shape": [], "dtype": "int32"}, {"name": "StatefulPartitionedCall/functional_1/tf_op_layer_Mul_4/Mul_4/y", "shape": [], "dtype": "float32"}, {"name": "StatefulPartitionedCall/functional_1/tf_op_layer_Sub_1/Sub_1/y", "shape": [], "dtype": "float32"}, {"name": "StatefulPartitionedCall/functional_1/tf_op_layer_Tile_1/Tile_1/input", "shape": [1, 13, 13, 1, 2], "dtype": "int32"}, {"name": "StatefulPartitionedCall/functional_1/tf_op_layer_Tile_1/multiples/Tile_1/multiples/1", "shape": [], "dtype": "int32"}, {"name": "StatefulPartitionedCall/functional_1/tf_op_layer_Tile_1/multiples/Tile_1/multiples/2", "shape": [], "dtype": "int32"}, {"name": "StatefulPartitionedCall/functional_1/tf_op_layer_Tile_1/multiples/Tile_1/multiples/3", "shape": [], "dtype": "int32"}, {"name": "StatefulPartitionedCall/functional_1/tf_op_layer_Tile_1/multiples/Tile_1/multiples/4", "shape": [], "dtype": "int32"}, {"name": "StatefulPartitionedCall/functional_1/tf_op_layer_Mul_5/Mul_5/y", "shape": [], "dtype": "float32"}, {"name": "StatefulPartitionedCall/functional_1/tf_op_layer_Mul_6/Mul_6/y", "shape": [3, 2], "dtype": "float32"}, {"name": "StatefulPartitionedCall/functional_1/tf_op_layer_concat_8/concat_8/axis", "shape": [], "dtype": "int32"}, {"name": "StatefulPartitionedCall/functional_1/tf_op_layer_Reshape_5/shape/Reshape_5/shape/1", "shape": [], "dtype": "int32"}, {"name": "StatefulPartitionedCall/functional_1/tf_op_layer_Reshape_5/shape/Reshape_5/shape/2", "shape": [], "dtype": "int32"}, {"name": "StatefulPartitionedCall/functional_1/tf_op_layer_concat_9/concat_9/axis", "shape": [], "dtype": "int32"}, {"name": "StatefulPartitionedCall/functional_1/tf_op_layer_strided_slice_4/strided_slice_4/begin", "shape": [1], "dtype": "int32"}, {"name": "StatefulPartitionedCall/functional_1/tf_op_layer_strided_slice_4/strided_slice_4/end", "shape": [1], "dtype": "int32"}, {"name": "StatefulPartitionedCall/functional_1/tf_op_layer_strided_slice_4/strided_slice_4/strides", "shape": [1], "dtype": "int32"}, {"name": "StatefulPartitionedCall/functional_1/tf_op_layer_concat_11/concat_11/axis", "shape": [], "dtype": "int32"}, {"name": "StatefulPartitionedCall/functional_1/tf_op_layer_Reshape_7/Reshape_7/shape", "shape": [1], "dtype": "int32"}, {"name": "StatefulPartitionedCall/functional_1/tf_op_layer_GatherV2/GatherV2/axis", "shape": [], "dtype": "int32"}, {"name": "StatefulPartitionedCall/functional_1/tf_op_layer_strided_slice_9/strided_slice_9/begin", "shape": [1], "dtype": "int32"}, {"name": "StatefulPartitionedCall/functional_1/tf_op_layer_strided_slice_9/strided_slice_9/end", "shape": [1], "dtype": "int32"}, {"name": "StatefulPartitionedCall/functional_1/tf_op_layer_strided_slice_9/strided_slice_9/strides", "shape": [1], "dtype": "int32"}, {"name": "StatefulPartitionedCall/functional_1/tf_op_layer_split_5/split_5/size_splits", "shape": [2], "dtype": "int32"}, {"name": "StatefulPartitionedCall/functional_1/tf_op_layer_split_5/split_5/split_dim", "shape": [], "dtype": "int32"}, {"name": "StatefulPartitionedCall/functional_1/tf_op_layer_strided_slice_13/strided_slice_13/begin", "shape": [2], "dtype": "int32"}, {"name": "StatefulPartitionedCall/functional_1/tf_op_layer_strided_slice_13/strided_slice_13/end", "shape": [2], "dtype": "int32"}, {"name": "StatefulPartitionedCall/functional_1/tf_op_layer_strided_slice_13/strided_slice_13/strides", "shape": [2], "dtype": "int32"}, {"name": "ConstantFolding/StatefulPartitionedCall/functional_1/tf_op_layer_RealDiv_2/RealDiv_2_recip", "shape": [], "dtype": "float32"}, {"name": "ConstantFolding/StatefulPartitionedCall/functional_1/tf_op_layer_RealDiv_3/RealDiv_3_recip", "shape": [2], "dtype": "float32"}, {"name": "StatefulPartitionedCall/functional_1/tf_op_layer_strided_slice_17/strided_slice_17/begin", "shape": [2], "dtype": "int32"}, {"name": "StatefulPartitionedCall/functional_1/tf_op_layer_strided_slice_17/strided_slice_17/end", "shape": [2], "dtype": "int32"}, {"name": "StatefulPartitionedCall/functional_1/tf_op_layer_strided_slice_17/strided_slice_17/strides", "shape": [2], "dtype": "int32"}, {"name": "StatefulPartitionedCall/functional_1/tf_op_layer_strided_slice_10/strided_slice_10/begin", "shape": [1], "dtype": "int32"}, {"name": "StatefulPartitionedCall/functional_1/tf_op_layer_strided_slice_10/strided_slice_10/end", "shape": [1], "dtype": "int32"}, {"name": "StatefulPartitionedCall/functional_1/tf_op_layer_strided_slice_10/strided_slice_10/strides", "shape": [1], "dtype": "int32"}, {"name": "StatefulPartitionedCall/functional_1/tf_op_layer_Reshape_11/shape/Reshape_11/shape/1", "shape": [], "dtype": "int32"}, {"name": "StatefulPartitionedCall/functional_1/tf_op_layer_strided_slice_6/strided_slice_6/begin", "shape": [1], "dtype": "int32"}, {"name": "StatefulPartitionedCall/functional_1/tf_op_layer_strided_slice_6/strided_slice_6/end", "shape": [1], "dtype": "int32"}, {"name": "StatefulPartitionedCall/functional_1/tf_op_layer_strided_slice_6/strided_slice_6/strides", "shape": [1], "dtype": "int32"}, {"name": "StatefulPartitionedCall/functional_1/tf_op_layer_strided_slice_5/strided_slice_5/begin", "shape": [1], "dtype": "int32"}, {"name": "StatefulPartitionedCall/functional_1/tf_op_layer_strided_slice_5/strided_slice_5/end", "shape": [1], "dtype": "int32"}, {"name": "StatefulPartitionedCall/functional_1/tf_op_layer_strided_slice_5/strided_slice_5/strides", "shape": [1], "dtype": "int32"}, {"name": "StatefulPartitionedCall/functional_1/tf_op_layer_Prod_1/Prod_1/reduction_indices", "shape": [1], "dtype": "int32"}, {"name": "StatefulPartitionedCall/functional_1/tf_op_layer_strided_slice_7/strided_slice_7/begin", "shape": [1], "dtype": "int32"}, {"name": "StatefulPartitionedCall/functional_1/tf_op_layer_strided_slice_7/strided_slice_7/end", "shape": [1], "dtype": "int32"}, {"name": "StatefulPartitionedCall/functional_1/tf_op_layer_strided_slice_7/strided_slice_7/strides", "shape": [1], "dtype": "int32"}, {"name": "StatefulPartitionedCall/functional_1/tf_op_layer_concat_12/concat_12/axis", "shape": [], "dtype": "int32"}, {"name": "StatefulPartitionedCall/functional_1/tf_op_layer_Reshape/shape/Reshape/shape/1", "shape": [], "dtype": "int32"}, {"name": "StatefulPartitionedCall/functional_1/tf_op_layer_Reshape/shape/Reshape/shape/2", "shape": [], "dtype": "int32"}, {"name": "StatefulPartitionedCall/functional_1/tf_op_layer_Reshape/shape/Reshape/shape/3", "shape": [], "dtype": "int32"}, {"name": "StatefulPartitionedCall/functional_1/tf_op_layer_Reshape/shape/Reshape/shape/4", "shape": [], "dtype": "int32"}, {"name": "StatefulPartitionedCall/functional_1/tf_op_layer_split_3/split_3/size_splits", "shape": [4], "dtype": "int32"}, {"name": "StatefulPartitionedCall/functional_1/tf_op_layer_split_3/split_3/split_dim", "shape": [], "dtype": "int32"}, {"name": "StatefulPartitionedCall/functional_1/tf_op_layer_ResizeBilinear/ResizeBilinear/size", "shape": [2], "dtype": "int32"}, {"name": "StatefulPartitionedCall/functional_1/tf_op_layer_concat_6/concat_6/axis", "shape": [], "dtype": "int32"}, {"name": "unknown_96", "shape": [1, 1, 256, 18], "dtype": "float32"}, {"name": "unknown_97", "shape": [18], "dtype": "float32"}, {"name": "StatefulPartitionedCall/functional_1/tf_op_layer_strided_slice/strided_slice/begin", "shape": [1], "dtype": "int32"}, {"name": "StatefulPartitionedCall/functional_1/tf_op_layer_strided_slice/strided_slice/end", "shape": [1], "dtype": "int32"}, {"name": "StatefulPartitionedCall/functional_1/tf_op_layer_strided_slice/strided_slice/strides", "shape": [1], "dtype": "int32"}, {"name": "StatefulPartitionedCall/functional_1/tf_op_layer_Reshape_1/shape/Reshape_1/shape/1", "shape": [], "dtype": "int32"}, {"name": "StatefulPartitionedCall/functional_1/tf_op_layer_Reshape_1/shape/Reshape_1/shape/2", "shape": [], "dtype": "int32"}, {"name": "StatefulPartitionedCall/functional_1/tf_op_layer_Reshape_3/shape/Reshape_3/shape/1", "shape": [], "dtype": "int32"}, {"name": "StatefulPartitionedCall/functional_1/tf_op_layer_Reshape_3/shape/Reshape_3/shape/2", "shape": [], "dtype": "int32"}, {"name": "StatefulPartitionedCall/functional_1/tf_op_layer_Reshape_3/shape/Reshape_3/shape/3", "shape": [], "dtype": "int32"}, {"name": "StatefulPartitionedCall/functional_1/tf_op_layer_Reshape_3/shape/Reshape_3/shape/4", "shape": [], "dtype": "int32"}, {"name": "StatefulPartitionedCall/functional_1/tf_op_layer_split_4/split_4/size_splits", "shape": [4], "dtype": "int32"}, {"name": "StatefulPartitionedCall/functional_1/tf_op_layer_split_4/split_4/split_dim", "shape": [], "dtype": "int32"}, {"name": "StatefulPartitionedCall/functional_1/tf_op_layer_split_2/split_2/split_dim", "shape": [], "dtype": "int32"}, {"name": "StatefulPartitionedCall/functional_1/tf_op_layer_split_1/split_1/split_dim", "shape": [], "dtype": "int32"}, {"name": "StatefulPartitionedCall/functional_1/tf_op_layer_split/split/split_dim", "shape": [], "dtype": "int32"}, {"name": "StatefulPartitionedCall/functional_1/zero_padding2d/Pad/paddings", "shape": [4, 2], "dtype": "int32"}, {"name": "StatefulPartitionedCall/functional_1/zero_padding2d_1/Pad/paddings", "shape": [4, 2], "dtype": "int32"}, {"name": "StatefulPartitionedCall/functional_1/tf_op_layer_concat/concat/axis", "shape": [], "dtype": "int32"}, {"name": "StatefulPartitionedCall/functional_1/tf_op_layer_concat_1/concat_1/axis", "shape": [], "dtype": "int32"}, {"name": "StatefulPartitionedCall/functional_1/tf_op_layer_concat_2/concat_2/axis", "shape": [], "dtype": "int32"}, {"name": "StatefulPartitionedCall/functional_1/tf_op_layer_concat_3/concat_3/axis", "shape": [], "dtype": "int32"}, {"name": "StatefulPartitionedCall/functional_1/tf_op_layer_concat_4/concat_4/axis", "shape": [], "dtype": "int32"}, {"name": "StatefulPartitionedCall/functional_1/tf_op_layer_concat_5/concat_5/axis", "shape": [], "dtype": "int32"}, {"name": "unknown_94", "shape": [1, 1, 512, 18], "dtype": "float32"}, {"name": "unknown_95", "shape": [18], "dtype": "float32"}, {"name": "StatefulPartitionedCall/functional_1/tf_op_layer_strided_slice_1/strided_slice_1/begin", "shape": [1], "dtype": "int32"}, {"name": "StatefulPartitionedCall/functional_1/tf_op_layer_strided_slice_1/strided_slice_1/end", "shape": [1], "dtype": "int32"}, {"name": "StatefulPartitionedCall/functional_1/tf_op_layer_strided_slice_1/strided_slice_1/strides", "shape": [1], "dtype": "int32"}, {"name": "StatefulPartitionedCall/functional_1/tf_op_layer_Reshape_4/shape/Reshape_4/shape/1", "shape": [], "dtype": "int32"}, {"name": "StatefulPartitionedCall/functional_1/tf_op_layer_Reshape_4/shape/Reshape_4/shape/2", "shape": [], "dtype": "int32"}, {"name": "StatefulPartitionedCall/functional_1/tf_op_layer_concat_10/concat_10/axis", "shape": [], "dtype": "int32"}, {"name": "StatefulPartitionedCall/functional_1/tf_op_layer_Max/Max/reduction_indices", "shape": [], "dtype": "int32"}, {"name": "StatefulPartitionedCall/functional_1/tf_op_layer_GreaterEqual/GreaterEqual/y", "shape": [], "dtype": "float32"}, {"name": "StatefulPartitionedCall/functional_1/tf_op_layer_Reshape_9/Reshape_9/shape", "shape": [1], "dtype": "int32"}, {"name": "StatefulPartitionedCall/functional_1/tf_op_layer_GatherV2_1/GatherV2_1/axis", "shape": [], "dtype": "int32"}, {"name": "StatefulPartitionedCall/functional_1/tf_op_layer_strided_slice_11/strided_slice_11/begin", "shape": [1], "dtype": "int32"}, {"name": "StatefulPartitionedCall/functional_1/tf_op_layer_strided_slice_11/strided_slice_11/end", "shape": [1], "dtype": "int32"}, {"name": "StatefulPartitionedCall/functional_1/tf_op_layer_strided_slice_11/strided_slice_11/strides", "shape": [1], "dtype": "int32"}, {"name": "StatefulPartitionedCall/functional_1/tf_op_layer_concat_14/concat_14/axis", "shape": [], "dtype": "int32"}, {"name": "StatefulPartitionedCall/functional_1/conv2d/Conv2D_weights", "shape": [3, 3, 3, 32], "dtype": "float32"}, {"name": "StatefulPartitionedCall/functional_1/conv2d/Conv2D_bn_offset", "shape": [32], "dtype": "float32"}, {"name": "StatefulPartitionedCall/functional_1/conv2d_1/Conv2D_weights", "shape": [3, 3, 32, 64], "dtype": "float32"}, {"name": "StatefulPartitionedCall/functional_1/conv2d_1/Conv2D_bn_offset", "shape": [64], "dtype": "float32"}, {"name": "StatefulPartitionedCall/functional_1/conv2d_2/Conv2D_weights", "shape": [3, 3, 64, 64], "dtype": "float32"}, {"name": "StatefulPartitionedCall/functional_1/conv2d_2/Conv2D_bn_offset", "shape": [64], "dtype": "float32"}, {"name": "StatefulPartitionedCall/functional_1/conv2d_3/Conv2D_weights", "shape": [3, 3, 32, 32], "dtype": "float32"}, {"name": "StatefulPartitionedCall/functional_1/conv2d_3/Conv2D_bn_offset", "shape": [32], "dtype": "float32"}, {"name": "StatefulPartitionedCall/functional_1/conv2d_4/Conv2D_weights", "shape": [3, 3, 32, 32], "dtype": "float32"}, {"name": "StatefulPartitionedCall/functional_1/conv2d_4/Conv2D_bn_offset", "shape": [32], "dtype": "float32"}, {"name": "StatefulPartitionedCall/functional_1/conv2d_5/Conv2D_weights", "shape": [1, 1, 64, 64], "dtype": "float32"}, {"name": "StatefulPartitionedCall/functional_1/conv2d_5/Conv2D_bn_offset", "shape": [64], "dtype": "float32"}, {"name": "StatefulPartitionedCall/functional_1/conv2d_6/Conv2D_weights", "shape": [3, 3, 128, 128], "dtype": "float32"}, {"name": "StatefulPartitionedCall/functional_1/conv2d_6/Conv2D_bn_offset", "shape": [128], "dtype": "float32"}, {"name": "StatefulPartitionedCall/functional_1/conv2d_7/Conv2D_weights", "shape": [3, 3, 64, 64], "dtype": "float32"}, {"name": "StatefulPartitionedCall/functional_1/conv2d_7/Conv2D_bn_offset", "shape": [64], "dtype": "float32"}, {"name": "StatefulPartitionedCall/functional_1/conv2d_8/Conv2D_weights", "shape": [3, 3, 64, 64], "dtype": "float32"}, {"name": "StatefulPartitionedCall/functional_1/conv2d_8/Conv2D_bn_offset", "shape": [64], "dtype": "float32"}, {"name": "StatefulPartitionedCall/functional_1/conv2d_9/Conv2D_weights", "shape": [1, 1, 128, 128], "dtype": "float32"}, {"name": "StatefulPartitionedCall/functional_1/conv2d_9/Conv2D_bn_offset", "shape": [128], "dtype": "float32"}, {"name": "StatefulPartitionedCall/functional_1/conv2d_10/Conv2D_weights", "shape": [3, 3, 256, 256], "dtype": "float32"}, {"name": "StatefulPartitionedCall/functional_1/conv2d_10/Conv2D_bn_offset", "shape": [256], "dtype": "float32"}, {"name": "StatefulPartitionedCall/functional_1/conv2d_11/Conv2D_weights", "shape": [3, 3, 128, 128], "dtype": "float32"}, {"name": "StatefulPartitionedCall/functional_1/conv2d_11/Conv2D_bn_offset", "shape": [128], "dtype": "float32"}, {"name": "StatefulPartitionedCall/functional_1/conv2d_12/Conv2D_weights", "shape": [3, 3, 128, 128], "dtype": "float32"}, {"name": "StatefulPartitionedCall/functional_1/conv2d_12/Conv2D_bn_offset", "shape": [128], "dtype": "float32"}, {"name": "StatefulPartitionedCall/functional_1/conv2d_13/Conv2D_weights", "shape": [1, 1, 256, 256], "dtype": "float32"}, {"name": "StatefulPartitionedCall/functional_1/conv2d_13/Conv2D_bn_offset", "shape": [256], "dtype": "float32"}, {"name": "StatefulPartitionedCall/functional_1/conv2d_14/Conv2D_weights", "shape": [3, 3, 512, 512], "dtype": "float32"}, {"name": "StatefulPartitionedCall/functional_1/conv2d_14/Conv2D_bn_offset", "shape": [512], "dtype": "float32"}, {"name": "StatefulPartitionedCall/functional_1/conv2d_15/Conv2D_weights", "shape": [1, 1, 512, 256], "dtype": "float32"}, {"name": "StatefulPartitionedCall/functional_1/conv2d_15/Conv2D_bn_offset", "shape": [256], "dtype": "float32"}, {"name": "StatefulPartitionedCall/functional_1/conv2d_18/Conv2D_weights", "shape": [1, 1, 256, 128], "dtype": "float32"}, {"name": "StatefulPartitionedCall/functional_1/conv2d_18/Conv2D_bn_offset", "shape": [128], "dtype": "float32"}, {"name": "StatefulPartitionedCall/functional_1/conv2d_16/Conv2D_weights", "shape": [3, 3, 256, 512], "dtype": "float32"}, {"name": "StatefulPartitionedCall/functional_1/conv2d_16/Conv2D_bn_offset", "shape": [512], "dtype": "float32"}, {"name": "StatefulPartitionedCall/functional_1/conv2d_19/Conv2D_weights", "shape": [3, 3, 384, 256], "dtype": "float32"}, {"name": "StatefulPartitionedCall/functional_1/conv2d_19/Conv2D_bn_offset", "shape": [256], "dtype": "float32"}, {"name": "ConstantFolding/StatefulPartitionedCall/functional_1/tf_op_layer_concat_12/values_1/concat_12/values_1_const_axis", "shape": [], "dtype": "int32"}, {"name": "ConstantFolding/StatefulPartitionedCall/functional_1/tf_op_layer_concat_11/values_1/concat_11/values_1_const_axis", "shape": [], "dtype": "int32"}]}]}